music_generator/models/AE_embedding_model.pt (torch, 156829 bytes, 24 tensors)

enc1.weight f4 [32, 95]
00000000: 139d d9bb a69a 9b3d bee1 293e 21f1 38ba
00000010: 7ca3 fa3d cb17 883d e385 f43d 3577 b03d
00000020: c28a 813d 17e6 b73c cd74 903c 302f 0f3e
00000030: f432 313c 5509 743d 8710 e13d 50bc bc3c
00000040: dc73 683d ec66 243d 017f 4f3d f7df 43bd
00000050: c371 fbbd 6c8f a1bd 25d7 b33c e5fb 453c
00000060: 0f9e 4fbd 302a 84bc 3d8b 3fbd c1dd 93bd
00000070: c62b ab3d d5e0 5fbd 10e9 953d e741 ec3d
00000080: 905d b73d 8e26 80bc 3a44 a73d 7096 9abd
00000090: 6163 5dbc 9a2e c93d feac 63bd b527 bb3d
000000a0: 7f31 99bb 7015 adbd 3776 febc 68b3 ea3c
000000b0: bff7 db3c a7e4 d53d e7cb 5c3d bc7f ea3d
000000c0: c785 1cbc 949e ad3c 3c46 fc3d 4341 313d
000000d0: 2bc1 bcbd c2bd ab3b 46ad 503d a5b3 36bd
000000e0: 1eb7 b2bc 2de1 42bd 9f85 e13d 4f92 b1bc
000000f0: 2c3a 3ebb f26c 253e f67d 27bc 98fc 003e
00000100: 5e9e 863c 9038 6abc 5ad1 f93d 1a5d 603d
00000110: 3ab3 57bd d15c f53d 441b 65ba 3230 193d
00000120: 1169 10bd da0d b5bd 7ef9 da3d 5067 4e3d
00000130: 0d29 77bc 548d 953d 4289 a7bd 8eac f83b
00000140: 8c9a 72bd 5dc3 b13d d003 5bbd 1e7d 803d
00000150: d298 103e 7dbc 75bd 745e 3b3e 24af 61be
00000160: 082b 30be faf9 75be 8664 a23d a982 54bd
00000170: 39f9 58bd 0fbb 4c3b d148 9ebc 92d8 f13d
00000180: c359 dbbc f9bb efbb bf10 39bd 6542 923c
00000190: 3422 833b 0ef6 a13d a847 4fbd 718d aabd
000001a0: 9eef 42bd b5a7 97bc a5bf c23c a15c cbbc
000001b0: 1bc7 a53d 2247 84bd 6d47 bc3d f729 43bc
000001c0: 0fc6 ddbc 268a ccbc 1131 573d 87c9 c1bc
000001d0: 2000 503d a85b e4bd 2239 693d d645 353d
000001e0: 24c6 c43d 0d58 d5bd 1869 03bd aaa6 7d3d
000001f0: 9b0d 163c 70f7 253d 4391 0bbc fc09 973d
00000200: 0ab8 82bd 88bf 333d a4ba 3c3d e06d 38bd
00000210: 7d8d 563b 281a 7b3d 0b69 cfbd e9e6 42bd
00000220: e0c3 98bd 978a 123e 05ee 84bd ada9 643d
00000230: 3392 26bd 4ff5 043d 6115 093e 77b5 30bd
00000240: 3613 9bbd 86b2 e7bc acc5 89bd 90fe b6bc
00000250: baa4 c2bd e109 b03c bd35 8c3d 1b81 7e3c
00000260: 4623 bfbd ef6d 25bd 9ec9 5f3a c27c 223d
00000270: e3ab b1bd 131c dc3d b69c ea3d 0028 b3bb
00000280: 81d6 13bc 5205 a13c 2b29 c23c 9339 333c
00000290: ceff bfbb 40d4 893b 9836 2ebb f0b4 1abd
000002a0: e637 c23d 3bc7 bd3d efcc 633d 147e afbb
000002b0: 4921 48bd 2a51 013d b381 8abd 47a7 433b
000002c0: 460c 9c3b 9bee 943d 60d1 793d 235a 2f3c
000002d0: c6d8 78bd ed0b 14be fbc7 823d 8aa4 853d
000002e0: 1ed0 233d ffca b63d a811 b6bc 85ea 643d
000002f0: a74b 773d ece7 453d 4940 b8bd f80d c5bd
00000300: 1788 4c3b 7c5e 5bba f810 093d 4d0b d73d
00000310: 0782 8f3d 61be e23c e7b3 a33d 1816 87bd
00000320: 767b e63c 09b0 c53d c793 ec3c 1baf 423d
00000330: e0a4 443d 76aa 5abd f91f 593c f882 043d
00000340: e398 c83d 48e5 f93c 98df aabc 5ba3 8c3d
00000350: e224 fabc 3461 c4bd 2fc3 323d f2d9 ccbd
00000360: 00c0 483d 93a4 4dbd 5ed8 b9bd 29a7 cfbd
00000370: 5966 e8bd 716f 9b3d bffb 5ebd 9fc0 a3bd
00000380: 6a13 ff3c e634 f3bc 35f5 04bd d9e9 45bd
00000390: 6b95 bbbd c5b3 12bd 7e5d 18be 5a3c 483d
000003a0: dc7c a03b fa80 1f3c 90e0 aabd 6ab5 2b3c
000003b0: e5fb 763d c6df 7cbd 738b 0fbe fa63 3e3d
000003c0: da03 30bc 7385 c3bd bf39 283c 1368 86bc
000003d0: ce7e 023e 7de6 0b3d e822 953d 285b 523d
000003e0: 0637 ff3c 2635 5cbc a62c 083d 5e2d 073d
000003f0: 35a5 90bd c0d2 dcbd 4800 4bbc aff0 4bbd
-0.006641039 0.07597856 0.1659002 -0.0007054974 0.122382134 0.06645163 0.11939599 0.08616487
0.06325294 0.022448583 0.01763382 0.13982844 0.010815371 0.059579212 0.109894805 0.023039013
0.056751117 0.040137216 0.05065823 -0.04782101 -0.12277558 -0.07888684 0.021953175 0.012083982
-0.050687846 -0.016133398 -0.046763647 -0.072200306 0.083579585 -0.054657776 0.07319844 0.115360074
0.089533925 -0.015643384 0.0816731 -0.07548225 -0.013512463 0.09823342 -0.0555849 0.09138433
-0.00467509 -0.084513545 -0.031062229 0.02865 0.026851533 0.104440026 0.053905394 0.11450145
-0.009553379 0.02119378 0.12318084 0.04327513 -0.09216531 0.0052411268 0.050946496 -0.044604916
-0.021815833 -0.047578026 0.11011814 -0.02167621 -0.0029026372 0.1615484 -0.0102229025 0.12596357
0.016432937 -0.014295712 0.12198134 0.05477629 -0.05266116 0.11980594 -0.00087397196 0.03739948
-0.03525645 -0.088405326 0.10692118 0.050391495 -0.015085471 0.07302347 -0.08180477 0.0075889295
-0.05922942 0.08679841 -0.053470433 0.06273864 0.14120796 -0.05999421 0.1829775 -0.22039467
-0.17203915 -0.2402114 0.079293296 -0.05188242 -0.052972052 0.0031239425 -0.019321831 0.11808886
-0.0267762 -0.0073161093 -0.045181986 0.017853925 0.00400188 0.07908259 -0.050605446 -0.08327759
-0.047591798 -0.018512586 0.023773024 -0.024824442 0.08094617 -0.0645888 0.09193311 -0.011911861
-0.02707198 -0.024968218 0.052537028 -0.023655666 0.05078137 -0.111502945 0.05693925 0.044256054
0.09608105 -0.10417185 -0.032082647 0.06192652 0.009158517 0.040519178 -0.00851852 0.07374951
-0.06382759 0.04388383 0.046076432 -0.04502666 0.0032738142 0.06130424 -0.10127457 -0.047583494
-0.07459235 0.1431068 -0.06490711 0.055825878 -0.04066677 0.032460507 0.13387062 -0.04314181
-0.075720236 -0.028283369 -0.06727156 -0.022338182 -0.09504075 0.021489086 0.06846187 0.015533711
-0.093329 -0.040388044 0.0008536818 0.03966976 -0.08675363 0.10747542 0.114556715 -0.005467415
-0.00902331 0.019655857 0.023701271 0.01093902 -0.0058593517 0.0042062104 -0.0026582833 -0.03777021
0.09483318 0.09266516 0.05561536 -0.005355606 -0.04885987 0.031571545 -0.067630194 0.0029854344
0.0047622053 0.07272073 0.06099069 0.010702643 -0.060753606 -0.14457674 0.063857995 0.06525524
0.039993398 0.08925437 -0.022225216 0.055887718 0.060374882 0.04831688 -0.089966364 -0.09621805
0.0031209046 -0.0008368266 0.03346345 0.10500202 0.070072226 0.02767867 0.07993298 -0.06596011
0.028135043 0.09652717 0.02887906 0.047530275 0.0480088 -0.05338522 0.013252252 0.032351464
0.09794786 0.030504838 -0.020858571 0.06867095 -0.030535165 -0.095888525 0.043643173 -0.10002507
0.04901123 -0.05020578 -0.09074472 -0.10139305 -0.11347646 0.07589615 -0.054439303 -0.07995724
0.031137187 -0.02968831 -0.03246041 -0.048318718 -0.091593586 -0.035815973 -0.14879414 0.04888568
0.004897697 0.00973534 -0.08343613 0.010480264 0.06029882 -0.061736844 -0.1401804 0.046482064
-0.010743106 -0.09546938 0.010267674 -0.016407048 0.12743685 0.034155358 0.072820485 0.051356465
0.031154167 -0.013440406 0.033245705 0.03300225 -0.07062761 -0.10782385 -0.012390204 -0.04979008

enc1.bias f4 [32]
00000000: 156d 053e d8c1 e33c f5fb bbbd ecfc 013e
00000010: e909 223d c2f4 0abd 9eb4 12bd 2704 b0bc
00000020: a6f5 a7bd d6ee fdbd 5b8e c63c 65ed 15be
00000030: 5eb5 1e3d 5dae a4bd 76b8 b1bd d190 a03d
00000040: b884 d2bd 27c8 6fbd 5573 293d b5ed 1d3d
00000050: 55d4 c03d 7d0c 19bd 24fd 183d 970a d3bc
00000060: 164d 1a3d 83f1 06be b891 7f3c 33a6 3abd
00000070: bc8a 7a3c 735f b0bc 364c 8dbd fe62 22bd
0.13029893 0.027802393 -0.09178916 0.12694138 0.039560232 -0.033924825 -0.03581678 -0.021486355
-0.082011506 -0.1239907 0.024237802 -0.1464134 0.038747184 -0.0804107 -0.08677761 0.078401215
-0.1027922 -0.05854049 0.041369755 0.038556773 0.09415499 -0.037365425 0.03735079 -0.025761886
0.03767117 -0.13178067 0.015598707 -0.045568656 0.015291866 -0.021529889 -0.06899302 -0.039645188

enc2.weight f4 [16, 32]
00000000: 0643 ddbb aafb 41bd fb4f 003d a9c3 e83d
00000010: fe30 bcbd fb80 02be 80fc c7bd 608c 203e
00000020: faa8 cbbc a010 1e3c 8609 d03d acf5 123e
00000030: 37ff 4dbe f5e4 3a3e 7327 273e 6cc1 323d
00000040: 5cfc 203e aae1 8c3d efc2 3b3c b6c6 0f3e
00000050: 208c 59bd 5b39 34be 65e9 d3bd c33a 3ebd
00000060: 4ef1 483d 0d47 1bbd fe08 043e 7fdb aabd
00000070: 9c92 34bd 0fc2 77be 838e b53d f350 2abe
00000080: 47a6 76be 83da fdbd dc7a 89bd 8e03 29be
00000090: 01ac 33bd cd45 473d a777 a53d c04c 91bd
000000a0: deb5 0e3e d4fa f7bd ef63 083e 0652 f13d
000000b0: 348a 1f3e bc7b a3bd 46cf 1d3d e4b9 90bc
000000c0: 7c47 31be 9e20 703b 39c7 78bc 2c10 59be
000000d0: 86b9 263e 439f aabd 4d08 27bd 0078 763d
000000e0: cee7 43be 4500 643b b2f6 c03d 56b3 3fbd
000000f0: fd3e c13d c111 a53d e6e4 1fbe 031a fd3b
00000100: 8cf7 683e c3ab 163d c5aa f9bd 7609 203d
00000110: 1e9b 213d cef8 063e 298e 12be ab3b 933d
00000120: 4620 1abe 18ad f0bd 075c 363e 0cb0 19bd
00000130: abe7 bfbd cbe3 2b3d 0be5 e33d 1e71 363e
00000140: 100f 4b3e ecb3 333e dba4 073e 6633 793e
00000150: 4c15 1dbe bfa5 fbbd 2365 123e ca92 9cbd
00000160: 5447 623e d932 9dbc 841f 693d 7964 ed3d
00000170: c29b 6a3e 1b44 6ebe a9e9 dcbd e1a5 8f3d
00000180: 5151 4dbd cb85 96bd e84e 2a3e 61d9 0d3d
00000190: 9324 b73c 7494 c03d 2679 89bb d561 cb3d
000001a0: 5ff1 4cbe a80e 0b3e 782f 5fbe 0871 4bbe
000001b0: 6f2f 513e c0bf 7abc 3a72 d6bc 3e34 9fbc
000001c0: 8d36 073e 6ffa 85bc 66e1 3abe 96e8 24bb
000001d0: 5388 263e eff1 dfbd 8ab5 89be fa66 8a3e
000001e0: 44a7 bf3d de6c 083e d6a0 8c3d c260 69be
000001f0: 577e a8bd 8be6 ff3d 866e 81be 3c23 9d3d
00000200: 9346 3f3e 258f fabd 4ba8 87be de52 0d3e
00000210: 6b12 be3d 2a7e fd3c e994 2c3a fbcb 33be
00000220: 3a5d 0f3d 2c34 c63d 9fa9 bfbd ec2a 063e
00000230: ae18 0d3e eee8 e73c 176d 943d f39e 5d3e
00000240: bd38 b33b 61a1 063e 8832 38bd 78bd 6fbd
00000250: 805b 223e 6a06 163e 46f9 973b d390 8bbc
00000260: fe51 dd3d d8c6 6fbd 58ff 0dbe 09a3 a0bd
00000270: fa33 4a3c f6b7 1d3d 3217 56bd 38d8 8b3c
00000280: 6343 fabc 6a6e 463d 6875 46be 5a40 8b3b
00000290: 3596 51bd c9c5 823d b102 63bb 9b97 b63d
000002a0: b50e 20bd c25c e6bd 2c4a c23c 4135 3e3d
000002b0: 4398 cfbd 5201 773d 48fc 0d3d 8f26 8abd
000002c0: 1b89 113e 3a46 d63d 4cf2 5e3e b27f 7c3d
000002d0: b2a2 f7bd 3fe9 ad3b 6892 0a3e 00e2 4d3b
000002e0: a289 51bc 7150 a9bc b330 de3d 8f3d 2b3e
000002f0: 14f3 a8bd c73f d9be bed7 f93d b5eb 35bd
00000300: 97ad 2ebe 1262 1c3e 56ec 60be 1469 c0bb
00000310: 3992 253e 5ad0 2d3e f204 dbbd d53f 7ebc
00000320: 159b aabd 0bfb 4ebd 1809 34bd 0e55 f33d
00000330: c15b 683d 382b 09be 24a9 0f3e 0506 1cbe
00000340: 0a2d 2d3c 9d82 803d 9a11 453d 36aa 283e
00000350: 11a6 e9bd 7d87 d8bd 71f6 0a3e db9e a1bd
00000360: 0c27 023d 6c17 0b3e ff14 1c3e ba83 e03d
00000370: 072e 93bd 4fd4 4fbe c647 1dbe 0415 8a3b
00000380: 0a71 e23b a4fb 6b3d d645 f0bd 56c5 9a3d
00000390: a0f5 393e d5ea 953b 1a19 10bb 5a9d 2ebc
000003a0: 0070 ddbd 2029 0abd 1f9a 043e fe84 62bd
000003b0: 48de b7bd 80e6 15be 9b89 153e 6a65 483e
000003c0: 4743 5b3d 11e6 d63c 805e 363c 4056 153e
000003d0: 3bb2 c5bd 7a9d 0abe 4339 713e 9972 6a3e
000003e0: a3c2 6f3e 42c6 3ebe b97a da3d b985 673d
000003f0: 2c8f 963e 0d1d 2ebe 9530 02be d60b 103e
-0.0067523746 -0.047359146 0.031326275 0.11365444 -0.09189032 -0.12744515 -0.097649574 0.15678549
-0.024860848 0.009647518 0.101580665 0.14351529 -0.20116888 0.18251403 0.16323642 0.043641493
0.15721267 0.068789795 0.01146005 0.14040646 -0.05311215 -0.17600004 -0.10347251 -0.04644276
0.04905825 -0.037909556 0.12894055 -0.08342647 -0.04408513 -0.24195121 0.088650726 -0.16632442
-0.24086867 -0.123951934 -0.06712887 -0.16505262 -0.043865208 0.04865055 0.080794625 -0.07094717
0.13936564 -0.121083885 0.13319372 0.11783223 0.15580064 -0.07982585 0.03852775 -0.017666765
-0.17312425 0.0036640535 -0.015184217 -0.21197575 0.16281709 -0.08331158 -0.0407794 0.060173035
-0.19131395 0.00347902 0.094220534 -0.046801887 0.09435842 0.08060027 -0.15614662 0.007724048
0.22750682 0.0367849 -0.12190775 0.039071523 0.039454572 0.13180849 -0.14312042 0.07189115
-0.15051374 -0.11751765 0.17808543 -0.037521407 -0.09370359 0.041965287 0.11127671 0.17816588
0.19829965 0.17549103 0.13246481 0.24336013 -0.15340155 -0.12287473 0.14296393 -0.07645185
0.22097522 -0.019189285 0.05691482 0.11591429 0.2291098 -0.23268168 -0.10786755 0.07014061
-0.050126377 -0.07349738 0.16631663 0.034631137 0.022356307 0.09403315 -0.00419535 0.09930769
-0.20013951 0.1357981 -0.21795452 -0.19867337 0.2042825 -0.015304506 -0.026177514 -0.01943409
0.13204403 -0.016354768 -0.18250045 -0.0025163046 0.16262941 -0.10934817 -0.26896316 0.2703169
0.09358075 0.1332278 0.068666145 -0.22790816 -0.082272224 0.124951445 -0.25279635 0.07672736
0.18679266 -0.12234334 -0.26495585 0.13801143 0.09280857 0.030943949 0.00065834686 -0.17558281
0.035001017 0.0967792 -0.093585245 0.13102311 0.13778946 0.028309312 0.0724737 0.21642666
0.00546941 0.13147499 -0.044970065 -0.0585303 0.15855217 0.14650884 0.00463787 -0.017036831
0.108066544 -0.05853924 -0.13866937 -0.078435965 0.012341494 0.038505517 -0.052268215 0.017070875
-0.03054971 0.048445143 -0.19380724 0.0042496147 -0.05116864 0.06385381 -0.0034639055 0.08915635
-0.039076526 -0.11248161 0.023717009 0.046437506 -0.101364635 0.060303994 0.034664422 -0.06745636
0.14212458 0.104626134 0.21772116 0.061645217 -0.120915785 0.005307346 0.13532412 0.0031415224
-0.012789162 -0.02066824 0.108491324 0.16722701 -0.082494885 -0.4243147 0.12199353 -0.04441424
-0.17058407 0.15271786 -0.21965155 -0.0058719013 0.16169061 0.16974011 -0.106943026 -0.015518148
-0.08330361 -0.050532382 -0.043953985 0.11881457 0.05672813 -0.13395393 0.14029366 -0.15236671
0.01056982 0.062749125 0.04811249 0.1647118 -0.11408628 -0.10572717 0.13570572 -0.078916274
0.03177552 0.13583153 0.15242384 0.10962625 -0.071865134 -0.20295833 -0.1535941 0.004213931
0.006910448 0.05761303 -0.1173207 0.0755717 0.18160105 0.0045751133 -0.0021987618 -0.010657633
-0.10812378 -0.033730626 0.12949418 -0.055302612 -0.08977944 -0.1463871 0.14603274 0.19569936
0.053530958 0.026232751 0.011130929 0.14583683 -0.096531354 -0.13536635 0.23557 0.22895278
0.23414092 -0.18630317 0.10667939 0.056524012 0.29406106 -0.1700327 -0.12713845 0.14067015

enc2.bias f4 [16]
00000000: 7d52 983e 108e 843e d695 ebbc 9c29 e13d
00000010: 5d12 3b3e 8d85 85bb caac 993e 06f2 873d
00000020: 4de5 753e 991b a13e 6337 2e3e 3320 c43e
00000030: 2f93 2cbd 45a6 a7be d8f1 833d 0ee8 56be
0.29750434 0.25889635 -0.02875797 0.109942645 0.18268724 -0.0040747584 0.3001464 0.06637959
0.24013253 0.31466368 0.17013316 0.38305816 -0.042132553 -0.3274404 0.064426124 -0.2098696

dec1.weight f4 [32, 16]
00000000: e64e 4cbd 895f 23be 0d81 5e3e 713f adbd
00000010: 430b 94bc b72d a13c c6b7 633e 7f7f 2ebe
00000020: e8df 5e3e e209 19be d90b dc3d 6c5c cc3e
00000030: dac0 303e 9b70 343e 4663 d53d a364 0bbe
00000040: b06b 24be d9e2 f2bd d5a6 17be 7a2f 77bd
00000050: 1d45 e2bd e3d6 68be a42b 1b3e bb64 0c3e
00000060: ecd4 76bc 2b50 c63a 522d 23be f14f 0e3e
00000070: b5b3 703c c5a6 843e 33b7 293e 00eb e13d
00000080: 6333 6abd 10e4 463e 25f0 313e 4fa5 773e
00000090: c08d 953e 7e78 97bd cbed b13d 2ab8 77bd
000000a0: c208 853e 08a0 663e dc90 85bd e99b 813e
000000b0: 69ca 40be e4ec 24be 95f8 bcbd f7ca 6ebe
000000c0: 18d4 05bd 456c 5b3e 17d6 20be f1f2 11be
000000d0: 3766 85be 163e 5cbd 6870 a3bd 6fa6 afbd
000000e0: 50da 28be 0f7d 39bc c059 d23c 9933 e6bd
000000f0: 4799 e0bc 5b73 dbbd e84e 6bbe 19a5 bbbc
00000100: 8430 353e 47a6 0f3e 56c1 3e3e 5fc6 0abd
00000110: 1b88 593e 6218 d63d 0d74 c53d 1461 fd3d
00000120: 3238 c93d 8dc6 b23d 3126 3b3e d081 f7bb
00000130: 4b1a 6c3e 1603 0f3e 8757 be3d e495 0d3d
00000140: 3562 c4bd 4ba9 5b3b 64fc 5dbd 740b f7bd
00000150: f708 1bbe 1cf7 c23d de30 2c3e faa5 48be
00000160: a3ef 193e ae21 633d d400 fb3d 69f5 aa3c
00000170: f542 6cbc 64ef 1a3e 4834 83be dbd2 12be
00000180: 9391 293e 4ac7 333e 9091 433d 4a55 b93d
00000190: 2e26 36bd 3c39 003d 976f 2c3d 6aaf e23d
000001a0: 7eac 1e3e 522f ce3d a254 413e 09f7 54bd
000001b0: bdfb dbbd ff29 2cbc 033e 4abe 72a7 83be
000001c0: 9f92 ddba b0b5 9c3e 2c42 01be 92b2 0f3e
000001d0: aec3 5f3e b125 6ebd 633f 523e 90ce 013e
000001e0: df4e 1a3e ebb6 5fbe 9beb 7c3d 9bc8 253e
000001f0: ff11 8a3d 78e6 6e3d e391 80be cf5a 2b3e
00000200: f3e7 c13d 72be 64be 9815 38be 7a2a 52be
00000210: 93d2 46be 4057 24be 7066 693d db2d ffbb
00000220: c662 9fbc e8a3 eabd d100 a63d 2cb2 b3bd
00000230: bfa7 4abe 1b48 cf3d 8c6c 8c3e d9c3 3bbe
00000240: 3006 633e fea4 813e 2edb 48be 8bc8 113e
00000250: a7cd e53d 36c3 413e 330d 593d b0c4 dd3d
00000260: add3 0a3e 9b24 203d 1ea7 493e b026 ad3e
00000270: c04b ffbc 5e35 e2bc 8228 ff3d a710 dfbd
00000280: 1abc 2f3e 3a33 ed3d c8e4 843e 1359 1e3c
00000290: 8313 83bb bbf8 f13d e018 a33b 3aa0 a13e
000002a0: c1b9 e33d f8b4 a6bd c047 9e3e e3a0 2bbe
000002b0: c745 a7bd 6173 03be a9c9 87be d556 1d3e
000002c0: 926e 263d 7a5f 3fbe a736 84bd 4258 8e3e
000002d0: 42bd 17be 3b7b 9bbc b717 82be d3e1 503e
000002e0: b87d 703e db0e a73c 305b 5dbe c63d 923e
000002f0: 5d63 e23d c0f2 213e 8225 3a3d 571e e03d
00000300: 3160 7e3e ee8f 3abe 5d5d 1abe 0db6 443e
00000310: 4b58 6f3e a20b bb3d ab37 4b3c 7c19 7d3d
00000320: 90ad c8bd 5c14 a13e 22d3 38bd a7a7 9a3e
00000330: 684b 233e 97dc 9ebd 6f36 153e 20b6 9abe
00000340: 7ab8 ff3d b6f5 a03e 5d11 c3bc 2173 e03d
00000350: 86dd 063e 4ff2 6bbe f025 f63d 94b1 d1bd
00000360: d67d 273e c556 a33e 6afb 34be 47a1 4c3e
00000370: 7d22 2c3c dd2a 1d3e c22b 943e f677 abbd
00000380: e964 c13d 0a26 c53d 76ea 4abe 38c2 9abd
00000390: d62a 8a3e 387a 3cbe 911a 21be 0631 c73d
000003a0: 8bc7 393e 82a9 0b3e 20b7 4b3e 53b7 3a3e
000003b0: 3ca4 7fbe c80a 55be 51b5 b5bd 532b b03d
000003c0: fef9 643d c13b 18be c09c f93d c998 843d
000003d0: 82d2 b73d 226c 513e 62e8 823e 0836 8d3d
000003e0: f23e adbc 294b 8cbd c697 4a3e 7e24 3c3e
000003f0: e5c2 1b3e ec2d 87be 3b66 bfbd aad5 98bd
-0.04987993 -0.15954413 0.21728916 -0.08459366 -0.018071776 0.019675119 0.22238073 -0.17040823
0.21765101 -0.14945176 0.10744447 0.39914262 0.17261067 0.1762108 0.104193255 -0.13612609
-0.16056705 -0.11859674 -0.14809735 -0.06034801 -0.110483386 -0.22738223 0.15153366 0.137103
-0.015065413 0.0015130093 -0.15935257 0.13897683 0.014691283 0.25908485 0.16573791 0.11031151
-0.057177912 0.19422936 0.17376764 0.24184154 0.2920971 -0.07396029 0.086879335 -0.060478367
0.25983244 0.22521985 -0.0652177 0.25314263 -0.18827213 -0.16105992 -0.09227101 -0.23319612
-0.03267297 0.2142802 -0.15706669 -0.14252831 -0.26054546 -0.053770147 -0.07980424 -0.085766666
-0.1648953 -0.01132132 0.025677562 -0.1124031 -0.027416838 -0.10715362 -0.22979319 -0.022905873
0.17694288 0.14028274 0.1862844 -0.033880588 0.21243326 0.104538694 0.096412756 0.12372032
0.098251715 0.08729277 0.18276288 -0.0075533167 0.23056905 0.13966021 0.09294038 0.034566775
-0.09589044 0.0033517655 -0.054195777 -0.120627314 -0.15140139 0.095197886 0.16815516 -0.19594565
0.1503282 0.05545204 0.12256017 0.020868974 -0.014420261 0.15130383 -0.25625825 -0.14338247
0.16559438 0.17556491 0.04774624 0.09049471 -0.044470005 0.031304583 0.042098608 0.11068614
0.15495488 0.100676194 0.18879941 -0.051993404 -0.10741375 -0.0105080595 -0.19750218 -0.25713688
-0.0016904658 0.30607367 -0.12622899 0.14032963 0.2185199 -0.058141414 0.20531993 0.12676454
0.1506915 -0.21847121 0.06174813 0.16189806 0.06741714 0.05832526 -0.25111303 0.1673386
0.09468069 -0.22338274 -0.17976987 -0.20524016 -0.19416265 -0.16048908 0.056982458 -0.007787449
-0.019456279 -0.11457044 0.081056245 -0.08774218 -0.19790553 0.10121175 0.27426565 -0.18336429
0.22170329 0.25321192 -0.1961486 0.14236657 0.11220866 0.18922123 0.052991103 0.10828531
0.1355731 0.03909741 0.19692656 0.3381858 -0.03116405 -0.027613338 0.12458898 -0.10891848
0.17161599 0.11582036 0.25955796 0.009664792 -0.0040001287 0.1181502 0.0049773306 0.31567556
0.11119414 -0.08139986 0.30914116 -0.16760592 -0.08167606 -0.12836982 -0.26521042 0.15365155
0.04063279 -0.18688765 -0.064557366 0.2780171 -0.1481829 -0.01897966 -0.25408718 0.20398645
0.23485458 0.020392826 -0.21616817 0.28562754 0.11054108 0.15815258 0.045445926 0.10943287
0.24841382 -0.18218967 -0.15074678 0.19210072 0.23373525 0.09133078 0.012403409 0.061791882
-0.097987294 0.31460845 -0.045123227 0.30206034 0.15946734 -0.07756918 0.14571546 -0.30217075
0.12486358 0.31437463 -0.02381199 0.10959459 0.13170442 -0.23041652 0.12018955 -0.102389485
0.16356596 0.31902137 -0.17674032 0.19983397 0.0105062695 0.15348382 0.28939635 -0.0837249
0.09443075 0.09626396 -0.19816002 -0.075565755 0.26985806 -0.18405998 -0.1573279 0.09726147
0.18142526 0.13638881 0.19894075 0.18233995 -0.24964994 -0.20804894 -0.08872474 0.086020134
0.055902474 -0.14866544 0.12188101 0.06474454 0.08975698 0.20451406 0.2556792 0.06895071
-0.021148179 -0.06850273 0.1978446 0.18373296 0.15211065 -0.26402223 -0.09345671 -0.07462628

dec1.bias f4 [32]
00000000: 4289 bc3e e8e6 8cbe a5cc b03d 8893 00be
00000010: ca46 123e 21c1 493e d99b 403e 3540 8d3e
00000020: c77b bb3c ee17 9d3e e2e5 b5bd 61ac 3cbe
00000030: f5b7 2bbe 80f2 8d3e 3d33 623e abc0 ba3d
00000040: 5490 fe3d 2dfc 903d 8008 ec3d d881 3bbd
00000050: b091 4c3e 1fb9 213e 60b9 cebc b719 4e3e
00000060: 23a9 a03e 6b05 2fbd ac7c 50be 40e2 15bd
00000070: 45ec 333d 6966 863e 6ea1 13be 5714 643e
0.3682347 -0.27519917 0.08632783 -0.12556279 0.14284816 0.19702579 0.18809451 0.2758805
0.02288617 0.3068232 -0.08881737 -0.18425132 -0.16769393 0.27724075 0.22089858 0.0911878
0.12429872 0.07079349 0.11525059 -0.045778126 0.1997745 0.15793274 -0.025234878 0.20126997
0.3137904 -0.042729776 -0.20360059 -0.036592722 0.043926496 0.26250008 -0.1441705 0.22273384

dec2.weight f4 [95, 32]
00000000: a7bf c8be ec63 e9bb b952 ddbe 5c21 fb3d
00000010: 070c 9abe d57f 743c f512 97be 72f0 b1be
00000020: 75b9 043e 359e d5be cfbb db3d c7a4 34be
00000030: 250f bbbe 43da 11bf 0773 d2be c0cb 8dbe
00000040: 2ef2 26be 1a64 b0be c8ed dcbe 712a afbe
00000050: c9e0 9bbe 0b94 acbe e94a 94be 497c 81be
00000060: bbbb c4be 9bf0 d03d cade 5bbc 9ecd 12be
00000070: 8cc9 be3d 1481 a4be ff7d 183e f85a 53be
00000080: 3adf e93d b507 e53d 91a3 b63d 19d2 d13d
00000090: 749e 0c3e 1af4 d6bd 9b5c 083d c233 a13e
000000a0: bbee b6bc c9be 9e3d 5294 033e 9a53 26be
000000b0: 3a14 05be 77f5 7b3d 7f9c 063e 7a4d cd3d
000000c0: 0380 833d 461e 04be ab07 383e 1f1a 683e
000000d0: f73b 233e 2cea 6b3d eb41 9abc 9cd9 933c
000000e0: 76c8 4e3d 7587 483e 0c4c e4bd 15ea fc3d
000000f0: 55ad 9fbc 10de 89bd bb79 06be a929 79be
00000100: 6830 413d 4609 58bd 8041 6c3b adee 043c
00000110: 6d93 a5ba 64a7 48be 651b 01bd 1979 49be
00000120: aa68 84bc c31d 743c a022 a1bd 69c3 413d
00000130: f7d9 2f3e 7633 0ebc 1329 b73c d9db 3abd
00000140: d312 5bbc cb76 69bc 9b8e 883c d401 963c
00000150: d068 80bd 18c6 bc3d 9ee0 83bc 1bb0 c93c
00000160: 065e 49bd 6ff2 0bbe f3f3 e23c dfd7 29bd
00000170: 26d1 3abe 8a97 ca3c ea7e dd3d 7b6e 1d3e
00000180: 8eaf 14bb a220 2fbe 86d7 6a3c 4c1f 1cbd
00000190: 9eb4 5cbb a9bc 60bc e52e fe3a 2ec4 a03d
000001a0: 1fb9 eebc 16fd 8a3c 1731 303b 17ab 3dbe
000001b0: 1da2 b5bc 101a 8b3c c6d9 9e3c 07d4 67bc
000001c0: 46f7 86bc a43a 80bd 4454 5639 0442 8b3c
000001d0: 5a83 713c cecc 7a3c 8140 b3bb b76a aa3a
000001e0: 3247 d83c 2489 c0bb ccf2 1bbd d233 67bb
000001f0: 72f8 353d db0f d93d 6fbf 48bd ecf0 2b3d
00000200: f049 983b ba85 cebd a803 343c aa43 193e
00000210: be63 343c f4d7 16be 4fe7 4d3b 6099 4fbd
00000220: 5912 4ebd b350 ad3b 6aff a03c 4831 cf3c
00000230: ccd8 823d c46b f83b 8f71 ba3c f865 d53c
00000240: 0ccd 3a3b 1a34 8b3d 77df 363c 1bb6 313d
00000250: c00c 613c 9574 1f3c deb0 0c3b eed0 563c
00000260: 2ebc cabb 4a40 513d a454 e03c 9689 5e3c
00000270: 9e50 06be 2819 0c3e 221f d63c 5f3f b23c
00000280: 5e9a 873c 07c4 55be a37c b03b 874f bb3d
00000290: 28ed 18bc 8f52 423c f2c5 1bbc 33ad c3bc
000002a0: 2eda b4bc f700 a13c f288 27bd 3824 f5bd
000002b0: ad36 d93d d236 263d 61c9 7e3c e222 6dbc
000002c0: 97af 27bc ef88 92bd ca13 053b ac6b e2bb
000002d0: ca8f e4ba 1b19 963c 0ddb 363b 3709 0c3c
000002e0: 6d5a 923b 3cdf 51bd 10bc 313b ac14 61bc
000002f0: f78b 01bd c8d8 063c d595 9bbc 2275 27bc
00000300: 696a b6bc b2e6 173e d7bb cc3b 520a d03d
00000310: ef50 e3bb 404c 3bbd 13b4 bc3b 4dfa 3fbd
00000320: 2bb7 0c3d f96e 85bc 8616 d43c 4f0e d03d
00000330: bb25 bb3d df1d 13bd ebc7 4e3c 9a16 dd3b
00000340: a534 08bc 8b05 373e 8c70 02bd b6e0 e13b
00000350: b1b6 fa3c 5b3c e7bb 3224 16ba de76 ee3c
00000360: fbda 7ebc b46f 24bd 3b48 4e3d 91d3 6f3b
00000370: 0e42 e0bc 4350 5c3c b304 383c 3b59 2f3d
00000380: e95c bd3c cd99 05be 83a9 8a3b b6b0 753b
00000390: 04e5 d93b d895 753d 65a1 6a3a f9ac f4bc
000003a0: 52c5 833a 5b7b 113c eb10 17bc 5f7d eebc
000003b0: 776e eb3d d948 a43c 0c3b 9f3b d6f0 2339
000003c0: aac6 0d3c 2638 db3b 3216 033c 7528 63bb
000003d0: 08d9 eebb 3f38 d83c 5ebc 1f3c 7e2f 0a3c
000003e0: 15a8 c23a 6f52 1ebd 03b8 2a3c 605b 2f3a
000003f0: c986 1abd bf1a 173d 8454 5c3c f8f9 723d
-0.3920872 -0.0071225073 -0.43227175 0.12262222 -0.300873 0.014923056 -0.2950665 -0.34753758
0.12961371 -0.41722265 0.10729181 -0.17640983 -0.36534992 -0.56973666 -0.41103384 -0.2769451
-0.16303322 -0.3445137 -0.43150163 -0.34212068 -0.30444935 -0.33706698 -0.28963402 -0.25290135
-0.38424477 0.10202142 -0.013419816 -0.14336249 0.09315786 -0.3212973 0.14891814 -0.2064017
0.1141953 0.111831106 0.089179166 0.10245151 0.1373232 -0.104957774 0.03329144 0.314848
-0.022330632 0.07751233 0.12849548 -0.16242829 -0.12995997 0.06151339 0.13145636 0.10024543
0.06420901 -0.12902173 0.17971675 0.22666214 0.15940844 0.05759637 -0.01883026 0.0180481
0.050484143 0.19582923 -0.11147317 0.12349335 -0.01949183 -0.06731808 -0.13132374 -0.24332298
0.047165304 -0.05274322 0.0036049783 0.008113545 -0.0012632437 -0.19595104 -0.031520266 -0.19675101
-0.016163189 0.014899674 -0.07867932 0.0473055 0.1717299 -0.008679261 0.022358453 -0.04561982
-0.013371187 -0.014249514 0.016669562 0.018311419 -0.062699914 0.09217471 -0.016098317 0.024620106
-0.049161933 -0.136667 0.027704215 -0.041465636 -0.18243846 0.024730463 0.108152226 0.15374176
-0.0022687647 -0.17102292 0.014333611 -0.038115785 -0.0033676992 -0.013716855 0.0019392638 0.07849918
-0.029141007 0.016966384 0.0026884729 -0.18522297 -0.022172028 0.016980201 0.019390952 -0.014149672
-0.016475331 -0.06261185 0.00020440022 0.016999252 0.014740789 0.015307618 -0.005470336 0.0013001774
0.026401136 -0.0058757234 -0.038073346 -0.003527869 0.04442639 0.10598727 -0.04901069 0.041977808
0.004647486 -0.100841 0.0109872 0.14967218 0.0110101085 -0.14730817 0.0031418388 -0.05068338
-0.050310466 0.005289161 0.01965304 0.025292054 0.06389007 0.007581206 0.022759227 0.026049599
0.0028503565 0.06797047 0.011161677 0.04338656 0.01373595 0.009732385 0.0021467726 0.013111336
-0.0061869835 0.0510867 0.02738411 0.013582608 -0.1311669 0.13681471 0.026137892 0.021758733
0.0165531 -0.2087556 0.0053859516 0.09146028 -0.009333886 0.011860504 -0.009507643 -0.023886299
-0.022076692 0.01965378 -0.040902086 -0.11969799 0.10606132 0.040579624 0.015550942 -0.014473649
-0.010234735 -0.07155024 0.0020305985 -0.006909808 -0.0017437872 0.018322518 0.002790156 0.008547119
0.004466346 -0.051238284 0.002712015 -0.013737839 -0.03162762 0.008230396 -0.018992344 -0.010220798
-0.022267537 0.14834097 0.006247978 0.101582184 -0.0069371383 -0.045727015 0.005758771 -0.046869565
0.03435437 -0.016288267 0.025889646 0.10158979 0.09138056 -0.03591716 0.012620906 0.006747079
-0.008313333 0.17873208 -0.031845614 0.0068932427 0.030604692 -0.0070567555 -0.00057274394 0.029109415
-0.015555139 -0.04014559 0.050361853 0.003659461 -0.027375247 0.01344687 0.011231589 0.042809706
0.023115592 -0.13046952 0.004231633 0.003748936 0.0066496152 0.059957355 0.0008950441 -0.029867636
0.0010053313 0.008879508 -0.009220342 -0.029112516 0.11495679 0.020054268 0.004859334 0.0001563461
0.008653322 0.006690043 0.008000897 -0.0034661565 -0.0072890557 0.026394008 0.0097495 0.008434175
0.0014851118 -0.038652834 0.010419848 0.0006689336 -0.037726197 0.03689074 0.0134478845 0.05932042

dec2.bias f4 [95]
00000000: b6bc e5be 7c01 db3e 5853 a1bc 097a 533e
00000010: 1dbd 0fbd c5d1 4e3e 8809 17bd eb44 573d
00000020: 409c 043e f5ab ab3d 4c57 133e d0c6 143e
00000030: ca0e 033e 1d99 c63d 7e26 4c3d b94b 7e3d
00000040: fb2d 2d3e 6234 673d af21 343e 69e2 1e3e
00000050: 50c0 b43d 897a dc3d 3205 5f3e f61b 153e
00000060: e8a9 c73d e850 c63d 665f ec3d 2c05 e73d
00000070: bb93 c83d 4ecc 463d 8ce6 a83d afaa c33d
00000080: faa9 793d 7dbc 3a3d afd9 713d 765d b43d
00000090: c487 ab3d 44c7 b43d d718 a13d ef4f 683d
000000a0: ba8c 49bd 0903 89bc cdac 653b 3c0e 2abb
000000b0: 4cba 59bb acfd 923b 261f 98bc 6ede b63b
000000c0: 7e5d dd3b da36 8138 ae72 873b ccb5 aaba
000000d0: 39e4 25bb 9219 5a3b 0958 8d3a fe16 cfba
000000e0: 254a 27ba 07c4 ecb7 1f01 f03a 7cdf 0f3b
000000f0: c5ef 813e f237 193e 73c6 113e 3868 853e
00000100: b800 de3d fe62 ea3d ebc3 413e b01c 403e
00000110: f7d9 6d3e cc1a 493e 7627 8c3e 7767 133e
00000120: ad3e f73d 2217 573d 2dea 153e 15c8 bd3d
00000130: eb30 fd3d 077a 1a3e a251 0f3e 2689 f73d
00000140: 6abb 1e3e 056d 0c3e f0b6 d03d 0007 093e
00000150: efb8 b73d c136 093d 6107 103a fdde 753e
00000160: a933 da3d db6a be3c 1f3b be3d 7a6d 633e
00000170: f143 3e3e d418 103c 69ae 523e
-0.44870538 0.4277457 -0.019693062 0.20652021 -0.03509246 0.20197208 -0.036874324 0.05255596
0.1295023 0.083824076 0.1438877 0.14528966 0.1279861 0.09697173 0.049841397 0.062083934
0.16912071 0.05644644 0.17590974 0.15516056 0.08825743 0.10765559 0.21779326 0.14561448
0.09749204 0.096834004 0.11541633 0.11280283 0.09793802 0.048534684 0.08247098 0.0955404
0.060953118 0.045589913 0.05904549 0.08806889 0.083755046 0.088270694 0.07866066 0.056716856
-0.049206473 -0.01672508 0.0035045624 -0.0025948426 -0.0033222614 0.0044858065 -0.01856954 0.005580715
0.00675553 6.161416e-05 0.004133544 -0.001302415 -0.0025313033 0.0033279401 0.0010783683 -0.0015799699
-0.0006381593 -2.8224675e-05 0.0018310881 0.0021953275 0.25378242 0.14962748 0.14235859 0.26056075
0.10839981 0.114446625 0.18922393 0.18760943 0.23227678 0.19639128 0.27373856 0.14394937
0.12072501 0.052512296 0.14640112 0.09266678 0.12362846 0.15085612 0.13995984 0.12086706
0.1550118 0.13713463 0.101911426 0.13381577 0.0897082 0.033499483 0.00054942636 0.24010845
0.10654385 0.023244312 0.0928862 0.2220973 0.18580605 0.008794982 0.20574345

exp_avg f4 [32, 95]
00000000: ed8e 0f3a 1327 8239 3a04 b6b8 9b87 f5b8
00000010: 2954 8db9 9d42 3f39 4425 3fb8 d0f5 0437
00000020: 7782 c8b8 f80a 6fb9 21b4 acb8 4397 4eb7
00000030: f8bc 30b8 9455 8038 24a9 7eb8 015f 7db7
00000040: 7b1d dcb7 a246 4937 5781 20b7 c59d 0438
00000050: 5883 beb8 19d3 45b8 cf92 25b7 239b 09b7
00000060: c318 9c37 e2cf 6936 11da 8a35 643b 8837
00000070: e828 ce36 9f98 ed36 13cd 0037 2e86 7136
00000080: fef1 3237 db47 9837 639a 3537 7aeb f136
00000090: b90e 8637 51c1 0137 3eba c6b2 c31c ba36
000000a0: 0cc6 28b8 e5ba c436 c632 5137 2004 df35
000000b0: bcf2 73b7 8eab 45b7 2189 eab5 c466 d136
000000c0: f8e4 1837 cf4b 99b6 40cc 28b6 fa3e 2bb7
000000d0: bc8f 13b7 d604 a236 07cc fc36 cc39 8336
000000e0: 3707 10b7 f75f 29b6 d3f3 6535 ec75 12b6
000000f0: 00a0 2038 92df 63b8 283a deb8 6abb 83b8
00000100: 23d4 afb8 1d47 25b9 276e 1cb9 bb7a 9bb8
00000110: d2ce a5b8 57d0 f1b8 ca94 b7b8 aadf aab8
00000120: e5fd 92b7 0153 bab7 079b 10b8 a9ff 00b8
00000130: 5f9c cdb7 ad8c b6b7 586f 33b7 c701 45b6
00000140: 2f10 4db7 bd5f e1b6 7b4b 0eb7 58de aab7
00000150: 770b 9f37 7ec2 c936 2bd4 74b4 69ef 64b8
00000160: 9957 8bb8 4cb3 61b8 d9ad 84b8 7c49 8cb7
00000170: f48b 0fb8 2362 5339 c691 8439 c4b1 bcba
00000180: 663a 75b8 bd60 313a d067 fd38 0ac9 e938
00000190: c668 2a39 afc5 d538 5315 da38 0cda af36
000001a0: 68de ff38 4f82 2d35 531d 2038 80bd 4638
000001b0: 4984 3438 5331 9ab4 90df 96b7 4ee7 b836
000001c0: 650b 92b7 0f42 1b38 e1d5 32b8 35f5 9939
000001d0: 4859 0f39 9892 a238 7e5b 5438 2e79 0e37
000001e0: 2d19 0738 6dae 9037 5261 ce37 8f0e a937
000001f0: 86c9 9236 6d6f cc37 2d88 0038 6342 e637
00000200: 9eb1 6f37 5ae6 d437 14a3 4d38 266a 4e38
00000210: 0133 1638 72c6 e437 65dc c037 9569 13b8
00000220: 7eca f434 2970 e2b6 aad6 45b7 719c 8fb6
00000230: ebc5 d7b6 c729 8bb6 da25 c335 5106 03b5
00000240: 1481 7db5 04a5 1cb6 4999 a1b4 6d75 74b6
00000250: d254 7bb6 e502 26b5 46db 7336 16f4 a035
00000260: 9531 5035 292c 6136 053a 5234 1ad1 fc38
00000270: 4136 c338 8529 cd38 7240 8538 ff2e 6139
00000280: e057 2739 961e 5a39 3bf5 3739 e563 8b39
00000290: 3ea8 9039 2ac4 1c39 4a70 4339 d209 d237
000002a0: f9e7 7238 3bd0 0639 797a ac38 126a 2439
000002b0: 19c1 d938 841e 1339 c123 e338 1d2e 0d39
000002c0: 8b0e 2939 b8a9 3438 007a 0938 6a2d 9938
000002d0: 56f5 f637 9fba 43b5 27e0 693a 484b 1bb8
000002e0: 797c 7439 27bc 9639 77af 203a 50d8 873a
000002f0: 5f6d 853a 6469 5d3a 7681 b13a dc59 ddb8
00000300: b0b0 25b9 571f c2b8 a56d c5b8 061e eeb8
00000310: 2083 dbb8 6d0c 0ab8 4724 65b8 5095 91b8
00000320: 677e 78b8 09c9 92b8 dd1e a3b8 b5cb 80b8
00000330: 2721 48b8 5365 1db8 3685 e7b7 3731 49b8
00000340: f2b0 6fb8 bdef 31b8 85c1 0939 7000 bfb8
00000350: 465f 86b7 5f7a e9b6 fd10 a2b7 01e1 b8b6
00000360: 4602 c436 d1fa c5b6 6ff0 2bb7 59dd cdb6
00000370: 49cb a4b6 d26f 92b6 c897 f335 2df5 c835
00000380: 8822 ecb6 44e9 4fb6 1cef 0ab6 353c ca36
00000390: 17d0 5f36 b8d6 0ab7 d582 7536 c6c1 69b5
000003a0: 27e7 4136 0e34 4c35 671f 83b5 368d ba34
000003b0: 3c1e 1a35 32f5 9bb5 75d7 09b5 a5b1 45b5
000003c0: 601e 65b4 215e 44b2 108c 6eb4 e07f e534
000003d0: 6cf0 ccb4 4309 50b5 b234 2eb5 a28e 8634
000003e0: 5dcc 5cb4 28f2 c4b4 8941 eab8 edd1 18b9
000003f0: ca18 37b9 008f 32b9 2726 43b9 2124 53b9
0.00054763147 0.00024824645 -8.6792235e-05 -0.00011707769 -0.0002695632 0.00018239995 -4.5572655e-05 7.925046e-06
-9.561044e-05 -0.00022796902 -8.235151e-05 -1.2313775e-05 -4.213766e-05 6.119456e-05 -6.0715844e-05 -1.5102095e-05
-2.6239772e-05 1.1996979e-05 -9.566857e-06 3.1618187e-05 -9.084371e-05 -4.716506e-05 -9.868948e-06 -8.201957e-06
1.860818e-05 3.484071e-06 1.0345267e-06 1.624012e-05 6.1440405e-06 7.080918e-06 7.677142e-06 3.5989901e-06
1.066597e-05 1.8153272e-05 1.0824387e-05 7.209773e-06 1.59809e-05 7.734009e-06 -2.3134927e-08 5.5465803e-06
-4.0238767e-05 5.8630126e-06 1.2469192e-05 1.6615995e-06 -1.4540445e-05 -1.1782058e-05 -1.7474268e-06 6.240649e-06
9.113217e-06 -4.5685806e-06 -2.515284e-06 -1.0207057e-05 -8.795349e-06 4.828539e-06 7.533937e-06 3.9108327e-06
-8.584749e-06 -2.5238821e-06 8.566396e-07 -2.1824335e-06 3.8295984e-05 -5.4329234e-05 -0.00010596617 -6.281475e-05
-8.384164e-05 -0.00015762118 -0.00014918354 -7.413836e-05 -7.9063364e-05 -0.00011530582 -8.753834e-05 -8.1478924e-05
-1.7522785e-05 -2.221158e-05 -3.4476656e-05 -3.075568e-05 -2.451072e-05 -2.1761598e-05 -1.0695156e-05 -2.9356322e-06
-1.222272e-05 -6.716668e-06 -8.481434e-06 -2.0369116e-05 1.8959616e-05 6.0129087e-06 -2.2801457e-07 -5.4582404e-05
-6.644353e-05 -5.3811164e-05 -6.326632e-05 -1.672352e-05 -3.42242e-05 0.00020159087 0.00025285612 -0.001439624
-5.846694e-05 0.0006766429 0.00012083317 0.00011147752 0.00016251495 0.00010193453 0.00010399022 5.2407904e-06
0.00012200774 6.4637146e-07 3.8174283e-05 4.7383364e-05 4.3038544e-05 -2.8720623e-07 -1.7985498e-05 5.5105547e-06
-1.7409862e-05 3.70164e-05 -4.2637697e-05 0.00029365128 0.00013670803 7.752067e-05 5.0629948e-05 8.492074e-06
3.2209955e-05 1.7247361e-05 2.4602432e-05 2.015315e-05 4.3745995e-06 2.4370582e-05 3.06444e-05 2.744905e-05
1.4286865e-05 2.5379635e-05 4.9027687e-05 4.9213086e-05 3.5810288e-05 2.7272126e-05 2.2990813e-05 -3.5145862e-05
4.5595874e-07 -6.748382e-06 -1.1792095e-05 -4.2799443e-06 -6.43054e-06 -4.1473863e-06 1.4539648e-06 -4.8810494e-07
-9.443768e-07 -2.3341863e-06 -3.0100117e-07 -3.6427184e-06 -3.7451287e-06 -6.184403e-07 3.6337456e-06 1.1991967e-06
7.755819e-07 3.3553317e-06 1.9578881e-07 0.000120552446 9.30843e-05 9.782895e-05 6.353938e-05 0.0002147518
0.00015959097 0.00020801494 0.00017543595 0.00026586573 0.0002759117 0.00014950396 0.0001863848 2.5038524e-05
5.7913338e-05 0.00012856808 8.2244114e-05 0.00015679773 0.000103833336 0.0001403038 0.00010830863 0.00013463986
0.00016122514 4.3073407e-05 3.2776967e-05 7.3040675e-05 2.9439729e-05 -7.291473e-07 0.0008921646 -3.702499e-05
0.00023316023 0.00028750414 0.0006129662 0.0010364149 0.001017969 0.00084461854 0.0013542611 -0.00010554839
-0.00015801447 -9.2564784e-05 -9.414115e-05 -0.00011354317 -0.00010467158 -3.2913336e-05 -5.463164e-05 -6.9419504e-05
-5.924553e-05 -6.999268e-05 -7.7781944e-05 -6.141459e-05 -4.771459e-05 -3.7526082e-05 -2.7599377e-05 -4.796797e-05
-5.7146834e-05 -4.2423362e-05 0.0001313743 -9.107671e-05 -1.601841e-05 -6.958187e-06 -1.9319816e-05 -5.509821e-06
5.84152e-06 -5.9002564e-06 -1.0248375e-05 -6.1352443e-06 -4.9112464e-06 -4.3641567e-06 1.8149085e-06 1.4972517e-06
-7.037368e-06 -3.0981182e-06 -2.0702782e-06 6.027078e-06 3.3350714e-06 -8.275434e-06 3.6584e-06 -8.708124e-07
2.889379e-06 7.607167e-07 -9.7694e-07 3.4747944e-07 5.741347e-07 -1.1619761e-06 -5.135001e-07 -7.3646726e-07
-2.1338337e-07 -1.1430104e-08 -2.2216432e-07 4.2747615e-07 -3.817289e-07 -7.7499516e-07 -6.4896733e-07 2.5063224e-07
-2.0563444e-07 -3.6684037e-07 -0.000111701964 -0.00014574053 -0.00017461475 -0.00017028674 -0.00018610862 -0.00020135987

exp_avg_sq f4 [32, 95]
00000000: 5f80 2537 5827 0336 9762 2c35 c481 3434
00000010: feb5 f533 a512 cc33 7328 9933 f208 8333
00000020: 4f85 0333 848a 3233 ccb3 5d33 60bf 8133
00000030: db28 1233 4d86 3933 4b61 a832 7e59 5c33
00000040: b990 3d33 df5c ba32 677a ec32 0453 6833
00000050: c2fb f834 eb8c 9433 f14e fc32 1c4a 5f32
00000060: 494d 1f32 bede 4132 59f0 2532 805b 1432
00000070: f6c4 dc31 13d8 d831 48f8 b231 0589 c931
00000080: 28aa bc31 5605 9931 05c5 9631 ab58 8131
00000090: e52a 8631 7732 9531 a60c 6c31 1245 4a31
000000a0: cdb4 2133 565d 6231 8787 9430 d88a 6630
000000b0: 31c0 1830 00e0 5e30 902d 1230 c337 1430
000000c0: 0213 b42f c810 962f de2a 6d2f 49a9 b32f
000000d0: e7d2 c42f 2b52 942f d1e1 602f 6464 3d2f
000000e0: 2b5a 5d2f ce11 8c2f bc96 312f 6eef b12e
000000f0: e7c1 8b34 93be 6d34 00fa 6234 88f4 7934
00000100: af73 6334 6fde 7034 3f94 6334 fbc5 4e34
00000110: 1b93 3134 4fbd 3e34 0704 6d34 e5cb 8034
00000120: 10cb be32 26f7 bf32 ed65 bb32 1f23 d032
00000130: 3408 ce32 88ed b032 c463 d832 b5f0 c832
00000140: e155 bf32 087a a932 8ca0 be32 0052 bf32
00000150: f9b4 3632 003f 9430 9d0a a92d 2d10 ee33
00000160: d249 ff33 7104 da33 5821 8f37 2e24 b236
00000170: a0f8 1436 2431 5f36 5cec 4a36 0bfa dc37
00000180: 4f03 9336 82f5 9d35 69bb 9d34 7f57 8034
00000190: aee8 4934 bbed d733 4b68 d033 0a16 8f33
000001a0: 88a9 d633 1bec c333 3d73 e033 ded2 8233
000001b0: e5ee bd33 9de4 8d33 4b76 3234 ebec 0634
000001c0: c3b8 ec33 1f5f bd33 28a0 1034 5a7a 5136
000001d0: e0e8 c134 7cc5 2034 5982 b133 cc92 8c33
000001e0: 4dae 6d33 68d0 1f33 c54d f332 d7ba f032
000001f0: 592a dc32 80d0 b832 e49c ce32 6af7 a332
00000200: fbc1 a432 a6e3 8332 5969 af32 dbcc cc32
00000210: b3e3 cf32 2dff a732 5816 5132 c660 1233
00000220: 9b8c 7b31 5c5d 7e30 3323 6730 fa75 0330
00000230: 006d 3430 1e92 0a30 8934 d02f 9c97 632f
00000240: df06 812f 5586 432f 66ad a02f 3d4a 732f
00000250: e33e 6d2f 9c42 232f 5ac4 512f 0a75 502f
00000260: 24cf 842f 152e 522f 4d70 962e 7704 1f35
00000270: cde5 0235 e6ea 1635 8f71 2935 7312 1535
00000280: 1764 0f35 1da1 0e35 fd45 0635 75f1 fa34
00000290: 3118 ff34 a363 1c35 fd03 2c35 3ed0 e433
000002a0: 3b92 0534 9e62 f533 a530 0634 e826 f033
000002b0: 23bb eb33 7be5 ec33 3339 db33 9e2c fe33
000002c0: b9e5 e633 b6cf e533 64cf c933 a95a 3d33
000002d0: 5621 2032 b78c e52d aa02 0737 7dd5 6337
000002e0: 0467 cf37 e002 a637 58b0 fb37 d933 8837
000002f0: 4b37 3237 1d66 dd36 ef8c cc37 7d6d 0536
00000300: 5564 c634 febb e234 8571 6134 a656 5034
00000310: bba7 0834 82d4 d133 2b74 b433 eaaf 1734
00000320: bf66 e133 83cb 0734 b336 d133 85e5 de33
00000330: 792e 8833 2a4e 3434 79e9 1b34 8e48 0934
00000340: ca61 f733 87f1 2434 bd4e 2f36 b3de b534
00000350: bd21 1834 57d6 8a33 88aa 5333 51f9 fb32
00000360: 357d d032 89d5 9132 6f56 a332 da95 8c32
00000370: c884 c032 4df6 af32 0e79 9c32 59c6 5a32
00000380: 704f 4432 6086 9532 0ac1 9b32 57b1 a632
00000390: 3b43 6332 1d1c 1432 49d8 8431 ae54 8e30
000003a0: 1cd6 8230 9b12 3230 e4d4 242f 5118 742f
000003b0: 61e7 2a2f 1454 572e 16d5 9c2e 06a8 6e2e
000003c0: dfd7 aa2e 9ce4 b52e 86b8 912e 6894 2e2e
000003d0: ee49 132e d537 412d bc89 fd2d bd91 112e
000003e0: c0bd 832e 9d7e 322e c252 c834 67cb b034
000003f0: 43af 8234 1b11 8034 f915 a534 8bf7 b534
9.864655e-06 1.9543422e-06 6.421846e-07 1.6811015e-07 1.1441806e-07 9.502882e-08 7.1319754e-08 6.10179e-08
3.0622058e-08 4.1569834e-08 5.1619097e-08 6.0418415e-08 3.4030432e-08 4.3195815e-08 1.9602018e-08 5.1304134e-08
4.4136616e-08 2.1695483e-08 2.7529678e-08 5.409221e-08 4.6376778e-07 6.91742e-08 2.937256e-08 1.2997159e-08
9.272591e-09 1.1284724e-08 9.658913e-09 8.6355385e-09 6.4252346e-09 6.310992e-09 5.208708e-09 5.8654472e-09
5.4908647e-09 4.4534927e-09 4.387973e-09 3.7644745e-09 3.90479e-09 4.342208e-09 3.434971e-09 2.943413e-09
3.765017e-08 3.2940384e-09 1.0806936e-09 8.387082e-10 5.55704e-10 8.108145e-10 5.317924e-10 5.392133e-10
3.2755315e-10 2.7296765e-10 2.1570254e-10 3.2680195e-10 3.5802047e-10 2.6979427e-10 2.0452907e-10 1.7225116e-10
2.0131867e-10 2.5478503e-10 1.6151608e-10 8.0915594e-11 2.603185e-07 2.2141676e-07 2.113884e-07 2.3278892e-07
2.1183108e-07 2.2432663e-07 2.1194954e-07 1.925727e-07 1.6537926e-07 1.7763999e-07 2.207381e-07 2.399021e-07
2.2211253e-08 2.2347717e-08 2.1816016e-08 2.4230358e-08 2.3985287e-08 2.0597113e-08 2.5191078e-08 2.3392525e-08
2.227438e-08 1.9729683e-08 2.219192e-08 2.2272616e-08 1.0634943e-08 1.0786323e-09 1.9217789e-11 1.1085681e-07
1.1887791e-07 1.0152224e-07 1.7062455e-05 5.3090253e-06 2.2198437e-06 3.3258193e-06 3.0237925e-06 2.6342479e-05
4.3813266e-06 1.1768864e-06 2.9379888e-07 2.390552e-07 1.8804232e-07 1.00549606e-07 9.7047256e-08 6.662965e-08
9.995989e-08 9.1233424e-08 1.04517746e-07 6.091953e-08 8.844453e-08 6.607409e-08 1.6620577e-07 1.2565913e-07
1.1023214e-07 8.818301e-08 1.346931e-07 3.1214645e-06 3.611849e-07 1.4973006e-07 8.265915e-08 6.54596e-08
5.5339388e-08 3.7209617e-08 2.8324289e-08 2.8024642e-08 2.5630628e-08 2.1515234e-08 2.4052902e-08 1.9088208e-08
1.9180325e-08 1.535393e-08 2.0420588e-08 2.3841883e-08 2.4201517e-08 1.95574e-08 1.21704815e-08 3.408129e-08
3.6605232e-09 9.2537333e-10 8.408733e-10 4.7825177e-10 6.5638517e-10 5.041175e-10 3.7872308e-10 2.0699392e-10
2.3469846e-10 1.7782871e-10 2.9227037e-10 2.2127096e-10 2.1577366e-10 1.4848428e-10 1.9078197e-10 1.895907e-10
2.4157842e-10 1.911576e-10 6.841159e-11 5.9238613e-07 4.876318e-07 5.6221177e-07 6.3122656e-07 5.553367e-07
5.34173e-07 5.3133573e-07 5.0020736e-07 4.6741812e-07 4.7515053e-07 5.825952e-07 6.4080797e-07 1.06549564e-07
1.2439789e-07 1.142664e-07 1.2497419e-07 1.1182948e-07 1.097708e-07 1.10313486e-07 1.0208387e-07 1.18359125e-07
1.0751996e-07 1.0701426e-07 9.397516e-08 4.4087447e-08 9.3208055e-09 2.6096776e-11 8.047247e-06 1.3579961e-05
2.4724293e-05 1.979008e-05 3.0003648e-05 1.6236607e-05 1.0622501e-05 6.598201e-06 2.4384322e-05 1.9882275e-06
3.6953375e-07 4.2232563e-07 2.0996056e-07 1.9403032e-07 1.2727007e-07 9.770976e-08 8.403034e-08 1.4126968e-07
1.04960684e-07 1.2646892e-07 9.7422706e-08 1.037943e-07 6.341447e-08 1.6792242e-07 1.4520437e-07 1.2785515e-07
1.15196215e-07 1.5361557e-07 2.6122864e-06 3.3875912e-07 1.4168377e-07 6.465114e-08 4.9282363e-08 2.9333622e-08
2.4271325e-08 1.6977326e-08 1.9015003e-08 1.636629e-08 2.2412124e-08 2.0484686e-08 1.821584e-08 1.2734369e-08
1.14267635e-08 1.740699e-08 1.8132159e-08 1.9405588e-08 1.32284255e-08 8.621126e-09 3.8662944e-09 1.0355927e-09
9.519598e-10 6.478246e-10 1.4991347e-10 2.220031e-10 1.5543612e-10 4.8960017e-11 7.13191e-11 5.426417e-11
7.7690514e-11 8.271536e-11 6.6266145e-11 3.969483e-11 3.3489593e-11 1.0983177e-11 2.8823936e-11 3.3098625e-11
5.990897e-11 4.058497e-11 3.7313117e-07 3.293055e-07 2.4341907e-07 2.3854304e-07 3.0749632e-07 3.3893988e-07

exp_avg f4 [32]
00000000: 3808 dfb8 2f19 aa39 04a6 98b9 eb41 68b7
00000010: 15c2 1139 33d0 e937 ea1d 4eb8 4e93 af39
00000020: 3211 5137 a23c bbb7 e0a4 7cb7 30c1 d0b8
00000030: 516b 4db9 df5d 4e39 d156 0fb7 8ac9 9838
00000040: b61f bf39 3dc9 5337 adca 03b7 2fd7 a639
00000050: 0400 0000 2f62 94b8 252e 24b8 0771 0238
00000060: 479d db38 e197 8739 19ec a039 16f8 0bb9
00000070: 2a51 44b6 14a1 ceb8 b678 32b8 610f c7b8
-0.000106349995 0.0003244369 -0.0002911539 -1.3843625e-05 0.00013900579 2.7872715e-05 -4.9142087e-05 0.00033488352
1.2461374e-05 -2.2320371e-05 -1.5058758e-05 -9.954197e-05 -0.00019590302 0.0001968066 -8.543678e-06 7.2854644e-05
0.00036453985 1.26234345e-05 -7.855398e-06 0.00031822312 6e-45 -7.075478e-05 -3.9143622e-05 3.109968e-05
0.00010472029 0.00025862365 0.00030693485 -0.00013348492 -2.925352e-06 -9.8528486e-05 -4.2550928e-05 -9.491924e-05

exp_avg_sq f4 [32]
00000000: cd3f 3e35 a336 0136 718e da35 f057 7135
00000010: 64ad 5c35 a8b2 1a35 f59b 0834 6e23 ba35
00000020: 0703 9332 90ef 5a35 755f df34 4567 6a35
00000030: 5639 a935 751f 2a35 f660 ad35 b12c 2035
00000040: 4d4d f235 5659 a235 f0f3 d434 afbc 5335
00000050: 55e7 822b 51e1 6f35 ed85 4f35 fc76 8a35
00000060: b687 2f35 ef24 f734 64c2 7c36 d28c 7534
00000070: 7e4e 1d35 5b6a 0836 9731 2234 d6eb b434
7.087336e-07 1.92543e-06 1.6283722e-06 8.990746e-07 8.2208703e-07 5.762945e-07 1.2722724e-07 1.3868391e-06
1.7114429e-08 8.155994e-07 4.160644e-07 8.732207e-07 1.2608168e-06 6.337571e-07 1.2917724e-06 5.966968e-07
1.8052903e-06 1.2095941e-06 3.9665565e-07 7.8878196e-07 9.301263e-13 8.9362317e-07 7.7308397e-07 1.031643e-06
6.5390066e-07 4.6034208e-07 3.7664076e-06 2.2868633e-07 5.860128e-07 2.0327486e-06 1.5105466e-07 3.3699206e-07
