music_generator/models/sequence_model.pt (torch, 281503 bytes, 144 tensors)

transformer_encoder.layers.0.self_attn.in_proj_weight f4 [48, 16]
0	0xbe7a5c5a	-0.24449292
1	0xbdd22399	-0.10260696
2	0xbeaf0676	-0.34184617
3	0x3e22c859	0.15896739
4	0xbe932e0b	-0.28746065
5	0xbd9c2b08	-0.07625395
6	0x3ebd4380	0.3696556
7	0xbe023e99	-0.12719192
8	0xbe85d623	-0.26139936
9	0x3e17754d	0.1479084
10	0x3e6282da	0.22120228
11	0x3b909903	0.0044127717
12	0xbe8fa20a	-0.28053313
13	0x3ec05656	0.3756587
14	0xbdd9d56e	-0.106364116
15	0x3edbcc55	0.4292933
16	0xbe2724fa	-0.16322699
17	0xbe1faaad	-0.15592451
18	0xbe488e0d	-0.19585438
19	0xbe9fe2c2	-0.3122769
20	0xbe1442d1	-0.14478613
21	0x3db88633	0.090099715
22	0xbf0fb802	-0.5614015
23	0xbda41504	-0.08011821
24	0x3f0a29d2	0.5397006
25	0x3c8e1922	0.017345969
26	0xbe5d3715	-0.21603043
27	0xbe8568cd	-0.2605652
28	0x3eec4043	0.46142778
29	0x3dfb1497	0.122597866
30	0x3eda83b4	0.42678607
31	0xbcd8dc71	-0.026472302
32	0x3e9469bd	0.28986922
33	0xbeb45efe	-0.35228723
34	0x3e951387	0.2911646
35	0x3ed4a139	0.41529253
36	0xbe95cba1	-0.2925692
37	0xbdc295c2	-0.0950122
38	0x3ebbdddd	0.36692706
39	0xbb394054	-0.0028267102
40	0xbf0eee92	-0.5583278
41	0xbd139b16	-0.036036573
42	0x3e5bd15e	0.21466586
43	0xbe05f419	-0.13081397
44	0xbe68b7df	-0.22726391
45	0x3c4fe0ba	0.012687856
46	0xbe375d17	-0.17906605
47	0x3e389c4a	0.1802837
48	0x3d4043f7	0.046939816
49	0xbd9799fd	-0.07402418
50	0x3d76f167	0.060288813
51	0x3d5b9453	0.05360825
52	0xbe238004	-0.15966803
53	0x3e3951d7	0.18097626
54	0xbf1f25b3	-0.621669
55	0x3e55680b	0.2084047
56	0x3e3092ff	0.17243575
57	0xbe988e08	-0.2979586
58	0xbf241259	-0.64090496
59	0xbe460d26	-0.19340953
60	0x3f1886c3	0.5958063
61	0xbdae1a8f	-0.085011594
62	0x3e90b831	0.28265527
63	0x3de7e47a	0.11322875
64	0xbdc5e760	-0.09663272
65	0x3e14d5e4	0.14534718
66	0x3c94e8ff	0.018177507
67	0xbdb87d50	-0.090082765
68	0x3ea5e01f	0.32397553
69	0x3de1ab92	0.110190526
70	0xbe982a4a	-0.29719764
71	0xbe161a1d	-0.14658399
72	0x3f0004d9	0.50007397
73	0x3ce00508	0.02734615
74	0xbe46c65e	-0.19411609
75	0xbe5f2db4	-0.21794778
76	0x3f0ae875	0.5426095
77	0xbd98ca0f	-0.074604146
78	0x3d9c341b	0.07627126
79	0xbe322343	-0.17396264
80	0x3e81f7e9	0.25384453
81	0xbdf65f1f	-0.12029862
82	0xbda68852	-0.0813147
83	0x3e6c25d2	0.23061302
84	0x3b4b6213	0.0031033799
85	0xbda22fc9	-0.079192705
86	0x3e9f0b3a	0.31063253
87	0x3e87603b	0.26440606
88	0xbd2230ad	-0.039597202
89	0x3c8f9eac	0.017531715
90	0x3e91d15d	0.28480044
91	0x3e95a92d	0.29230633
92	0xbee0a4a5	-0.43875614
93	0x3e6843a4	0.22682053
94	0xbf0c444b	-0.54791707
95	0x3eac786e	0.3368563
96	0xbe39a455	-0.18129094
97	0xbe8ee1b4	-0.27906573
98	0x3da98b03	0.082784675
99	0xbe1ae2a6	-0.15125522
100	0xbdc359e6	-0.09538631
101	0x3e82051f	0.25394532
102	0x3c970b5c	0.018438034
103	0x3bd99318	0.0066398494
104	0xbeb1cb05	-0.34725204
105	0x3e939972	0.28828007
106	0x3ef47af6	0.47750062
107	0x3b32e9d4	0.0027300017
108	0xbe02bd21	-0.1276746
109	0x3e6da550	0.23207593
110	0xbd56e613	-0.05246551
111	0x3e428cb2	0.18998984
112	0xbe5f8656	-0.21828589
113	0xbe83473c	-0.25640285
114	0x3e9c7884	0.30560696
115	0x3d42febc	0.047606215
116	0x3b89529b	0.0041907555
117	0x3e5b1c04	0.21397406
118	0x3e9fbcce	0.31198734
119	0x3c5a56fc	0.013326403
120	0xbedb7d54	-0.42869055
121	0x3e8e0032	0.27734524
122	0x3ee68600	0.4502411
123	0xbe0416f9	-0.12899388
124	0xbe46feae	-0.1943309
125	0x3e3ab046	0.18231305
126	0xbee712f4	-0.45131648
127	0xbe43a3aa	-0.19105402
128	0xbe251da3	-0.16124587
129	0x3d666da8	0.05625692
130	0xbe8ca3d8	-0.27468753
131	0xbed3f204	-0.4139558
132	0xbe84dbc3	-0.25948915
133	0x3d47d784	0.048789516
134	0xbecc7e47	-0.39940092
135	0xbdec1bea	-0.11528762
136	0x3d042efe	0.032271378
137	0xbeb4e6e5	-0.3533241
138	0xbd1cfdd8	-0.03832802
139	0xbda771e3	-0.08176019
140	0x3cd4be77	0.025969727
141	0xbe98eaf2	-0.2986675
142	0x3db38271	0.08765114
143	0xbdd2463f	-0.10267305
144	0x3d8080d7	0.06274574
145	0xbe2730c0	-0.1632719
146	0xbe267dd5	-0.16258939
147	0xbdff5ddc	-0.12469074
148	0x3ea806bb	0.32817635
149	0x3d82f502	0.06394388
150	0xbd80d51f	-0.062906496
151	0x3dd08b4b	0.10182818
152	0x3efbf581	0.49210742
153	0xbe05ca1f	-0.13065384
154	0xbe316bc3	-0.17326264
155	0xbe7e1dd9	-0.24816073
156	0x3e9509b5	0.29108968
157	0xbc8f39d7	-0.017483635
158	0xbcd8a794	-0.026447095
159	0x3e6b9219	0.2300495
160	0xbe955e10	-0.29173326
161	0xbdbf3833	-0.09336891
162	0xbcf36399	-0.029710578
163	0x3c87af04	0.016562946
164	0xbdb84dd5	-0.0899922
165	0x3e70f4b5	0.23530848
166	0xbf1e16e7	-0.61753696
167	0x3dccaeac	0.099942535
168	0x3eeac37d	0.4585227
169	0x3beda383	0.007252158
170	0xbf0155d4	-0.5052159
171	0xbef3c373	-0.47610053
172	0x3da228f2	0.07917966
173	0xbdce6533	-0.10077896
174	0x3ef66cc0	0.48129845
175	0xbde66dcf	-0.11251413
176	0xbde7d14f	-0.11319219
177	0x3d18997b	0.037255745
178	0x3d0309af	0.031991657
179	0x3e876327	0.26442835
180	0xbdd3a959	-0.10335035
181	0x3d8138c5	0.06309656
182	0x3cf62740	0.030048013
183	0xbe49bdab	-0.19701259
184	0xbe27e1d1	-0.16394736
185	0xbe476048	-0.19470322
186	0x3ec0b26f	0.37636134
187	0x3ddfdb10	0.10930455
188	0xbedfc82f	-0.43707415
189	0x3e37dabe	0.17954537
190	0x3d97b729	0.07407982
191	0xbdd68777	-0.104750566
192	0x3e072a80	0.13199806
193	0x3dc31e5a	0.095272735
194	0xbe0abeec	-0.13549393
195	0x3d206f8c	0.03916888
196	0x3ed3ff21	0.41405585
197	0x3ec3a41f	0.38211152
198	0xbf2f77e7	-0.6854233
199	0x3dbec4be	0.09314869
200	0x3eaaa98a	0.33332473
201	0x3e20da8d	0.1570837
202	0xbdde83f6	-0.10865013
203	0xbdeb5d12	-0.11492361
204	0x3efc1fec	0.49243104
205	0xbc9a3f51	-0.01882902
206	0x3e7c4b73	0.24638157
207	0x3cfdb5c0	0.030970454
208	0xbe98b9be	-0.2982921
209	0xbe04a778	-0.1295451
210	0xbe8c4976	-0.27399796
211	0xbeb8945d	-0.36050692
212	0x3e9e0930	0.30866385
213	0x3e7b6bdd	0.24552865
214	0xbe8716d2	-0.26384598
215	0x3dd13b6d	0.10216413
216	0x3dbe6116	0.092958614
217	0xbd92b4c3	-0.07163384
218	0xbd10c174	-0.03534074
219	0xbe81ffd5	-0.25390497
220	0x3ed27e82	0.41112143
221	0xbe281d32	-0.16417387
222	0xbc442d80	-0.011973739
223	0x3e852505	0.26004806
224	0x3e9b4494	0.30325758
225	0xbe5cd395	-0.21565087
226	0x3dfafd25	0.12255315
227	0xbc333e0c	-0.010940086
228	0x3e685e23	0.2269216
229	0x3d3d0348	0.046145707
230	0x3ed0329f	0.4066362
231	0xbcbf899a	-0.023381043
232	0xbe287c9e	-0.16453788
233	0xbe403fe6	-0.18774375
234	0x3eeb4bdf	0.45956323
235	0xbdc82322	-0.09772326
236	0xbf0fd5c0	-0.5618553
237	0x3ea37465	0.3192474
238	0xbdc41abf	-0.09575414
239	0x3e5a6329	0.21326889
240	0x3e9a743d	0.30166808
241	0x3db6c05f	0.089234106
242	0xbe7cb9cb	-0.2468025
243	0x3eabda4c	0.33564985
244	0xbd628b15	-0.05530842
245	0xbe504e6e	-0.20342419
246	0x3e86862e	0.26274246
247	0x3e5d93eb	0.21638457
248	0x3e4fb90f	0.20285438
249	0x3d8534b7	0.06504195
250	0x3ec9034f	0.39260337
251	0x3e41442f	0.18873666
252	0x3d0a454b	0.03375749
253	0x3e814b6f	0.25252864
254	0xbe80f191	-0.251843
255	0xbdae2117	-0.08502405

transformer_encoder.layers.0.self_attn.in_proj_bias f4 [48]
0	0x3e775576	0.24153695
1	0xbe34be0b	-0.1765062
2	0x3da6bc82	0.08141424
3	0xbe368153	-0.17822771
4	0xbe2a0027	-0.1660162
5	0x3e2d97c2	0.16952422
6	0x3d240ffb	0.040054303
7	0x3db04399	0.08606643
8	0xbe58e850	-0.2118237
9	0xbd718315	-0.0589629
10	0xbe796dab	-0.24358241
11	0x3cb556b7	0.022136075
12	0xbd528444	-0.05139567
13	0xbda487c0	-0.08033705
14	0x3d955ce9	0.07293112
15	0x3ddc3bc4	0.10753587
16	0x35fe7453	1.895833e-06
17	0x34dc5ce9	4.1045794e-07
18	0x35ebb58c	1.7561701e-06
19	0x3521b47e	6.0239825e-07
20	0x3511a61f	5.425845e-07
21	0xb6051d1c	-1.9835488e-06
22	0x353f965c	7.1371846e-07
23	0xb4732ff8	-2.264859e-07
24	0xb4adeeee	-3.2397605e-07
25	0x348eda46	2.6608376e-07
26	0x34cd233e	3.8209868e-07
27	0xb38a14b2	-6.42989e-08
28	0x363634ed	2.715092e-06
29	0x3544a568	7.325639e-07
30	0x34910724	2.701355e-07
31	0xb5c40ebf	-1.460743e-06
32	0xbca57a50	-0.020199925
33	0xbd4e1b40	-0.050318956
34	0xbd8dc369	-0.06922037
35	0xbd669bf2	-0.056301065
36	0xbc805de7	-0.015669776
37	0xbda8e16c	-0.08246121
38	0xbd2a7c29	-0.041622315
39	0xbc478cd9	-0.012179577
40	0x3d344a62	0.04401625
41	0x3af8e078	0.0018987795
42	0x3c32c33e	0.010910807
43	0xbd870ffa	-0.06594844
44	0xbbc7d6de	-0.006098612
45	0xbca857c2	-0.020549659
46	0xbd55384d	-0.052055646
47	0xbe05ab7f	-0.13053702

transformer_encoder.layers.0.self_attn.out_proj.weight f4 [16, 16]
0	0xbc4dfa62	-0.012571903
1	0xbe0a90bc	-0.13531774
2	0xbe01ee9e	-0.12688681
3	0x3e0fd53a	0.14046183
4	0x3d725bf7	0.059169736
5	0x3c4c9d47	0.01248867
6	0x3d49dc23	0.049282204
7	0x3e04b2ea	0.12958875
8	0xbe36f512	-0.17866924
9	0xbe5ed68d	-0.21761532
10	0xbe297d7a	-0.16551772
11	0x3dc7714e	0.09738408
12	0x3dfda4ec	0.12384972
13	0x3e6a5d32	0.22887114
14	0x3d8e65ab	0.069529854
15	0x3ea0299c	0.31281745
16	0xbd0113af	-0.031512912
17	0x3d4ffc71	0.050777856
18	0x3cb06b71	0.021535607
19	0xbcee6f5f	-0.02910584
20	0xbe6682c9	-0.22510828
21	0x3e3d08b3	0.1846035
22	0xbe5e2c1b	-0.21696512
23	0xbcd65dac	-0.026167713
24	0xbda99534	-0.08280411
25	0xbe36bd99	-0.17845763
26	0x3e072220	0.13196611
27	0x3e823405	0.25430313
28	0x3e33b3fa	0.17549124
29	0xbdb48748	-0.08814865
30	0x3e739a66	0.23789367
31	0x3ec42756	0.3831126
32	0xbdf4e285	-0.11957268
33	0xbe4b17f5	-0.19833358
34	0xbda0f816	-0.07859819
35	0xbdfa0ad0	-0.122090936
36	0xbd981547	-0.07425933
37	0xbbcb3822	-0.00620176
38	0x3e9b515b	0.30335507
39	0xbdb554ac	-0.088540405
40	0x3d07c1a9	0.033143673
41	0x3e325b80	0.17417717
42	0xbeb0bd91	-0.34519628
43	0xbe0948e5	-0.13406713
44	0x3e2fbb28	0.17161238
45	0x3e907ad5	0.28218713
46	0xbe2e6219	-0.17029609
47	0x3e9d417f	0.30714032
48	0xbe7bf60f	-0.24605583
49	0xbdeaeb59	-0.1147067
50	0x3d9bf56d	0.07615171
51	0xbd84a54f	-0.064768426
52	0xbe218a31	-0.15775372
53	0x3e2a0a14	0.16605407
54	0x3e838263	0.25685415
55	0xbd1cc560	-0.03827417
56	0x3e086131	0.13318326
57	0x3e2eee43	0.17083077
58	0xbd988716	-0.074476406
59	0xbdee76e5	-0.11643771
60	0xbda7a61e	-0.08185981
61	0x3e3c001e	0.1835942
62	0xbc449776	-0.011999002
63	0x3dd54e00	0.10415268
64	0x3e44201c	0.19152874
65	0xbdc124f8	-0.09430879
66	0x3d815ead	0.06316886
67	0x3b2348f2	0.0024915305
68	0xbe09cf32	-0.13457945
69	0xbe5b16b8	-0.21395385
70	0xbe1d56bc	-0.15365118
71	0x3d644f25	0.05573954
72	0x3e5b8559	0.21437587
73	0x3d800067	0.06250077
74	0xbd2d1a2a	-0.04226128
75	0xbd8d4187	-0.06897264
76	0xbcdead85	-0.02718235
77	0xbcf6727e	-0.030083891
78	0xbdec219e	-0.115298495
79	0xbe678a82	-0.2261143
80	0xbea410ff	-0.32044217
81	0xbde49edc	-0.111631125
82	0x3df5704e	0.11984311
83	0x3dccf615	0.10007874
84	0x3e6bf823	0.23043875
85	0xbe463852	-0.19357422
86	0x3e903ada	0.281699
87	0x3c03c719	0.008043074
88	0xbe5915d1	-0.21199729
89	0x3e759f52	0.23986557
90	0xbdee6f4f	-0.11642324
91	0x3e12f67f	0.14351843
92	0xbd328f46	-0.043593667
93	0x3e07a0e8	0.13244975
94	0xbe5106da	-0.2041277
95	0x3e18b9ff	0.14914702
96	0xbc017059	-0.007900321
97	0x3e5d2c70	0.21598983
98	0xbbe5463b	-0.0069968975
99	0xbe5b8abd	-0.21439643
100	0xbe0021aa	-0.12512842
101	0x3e09cfff	0.1345825
102	0xbe90be1c	-0.28270042
103	0xbd15e5e3	-0.03659619
104	0xbdfe6220	-0.124210596
105	0xbceda1fb	-0.029007902
106	0x3ea0a63c	0.31376827
107	0xbe08470f	-0.13308357
108	0xbd658d9f	-0.056043264
109	0xbd625a98	-0.05526218
110	0x3e109694	0.14119941
111	0xbd58c4e1	-0.052922133
112	0xbd77e8d1	-0.060524765
113	0xbeb6bbcc	-0.35690153
114	0x3e31dd22	0.17369512
115	0xbe9345b2	-0.2876411
116	0xbc8be154	-0.017075218
117	0x3cd0e70d	0.025500799
118	0xbb32285b	-0.0027184698
119	0x3cef73cb	0.02923002
120	0x3ce19cb1	0.027540537
121	0x3d10c31b	0.035342317
122	0xbe56d35b	-0.20979063
123	0xbdb983db	-0.090583526
124	0x3e2a1b57	0.16611992
125	0xbe57e33c	-0.21082777
126	0xbe1adf40	-0.15124226
127	0xbea62064	-0.32446587
128	0x3cafc7e1	0.021457614
129	0xbe7cd8d0	-0.24692082
130	0xbe7d5af2	-0.24741724
131	0x3d135a9e	0.03597509
132	0x3e8477e5	0.25872722
133	0x3d0684a7	0.03284135
134	0x3df67733	0.12034454
135	0x3de8b3b1	0.113623984
136	0x3e531835	0.20614703
137	0x3e960354	0.29299414
138	0xbe1f9d8d	-0.15587445
139	0x3dfe8e67	0.12429505
140	0x3db3502b	0.08755525
141	0x3d50623c	0.050874934
142	0x3ce5982b	0.02802666
143	0xbe9035ce	-0.2816605
144	0xbe9265ad	-0.28593197
145	0xbe2c97a1	-0.16854717
146	0x3daad7f5	0.08341972
147	0xbc56e2f0	-0.01311563
148	0x3d002a4f	0.03129035
149	0xbd9233c3	-0.07138779
150	0xbd6b5b23	-0.05745996
151	0x3e08ec5f	0.13371418
152	0x3c922f31	0.017844768
153	0x3cc39d65	0.023878762
154	0x3d5f08fe	0.054451935
155	0xbe09a352	-0.13441208
156	0xbe0fa221	-0.14026691
157	0x3d2da198	0.042390436
158	0xbdea0d2f	-0.11428296
159	0xbe34dc27	-0.17662106
160	0xbd56496c	-0.052316114
161	0x3e372d1a	0.17888299
162	0xbd93cf1c	-0.07217237
163	0x3e63940b	0.22224443
164	0xbe1a0954	-0.15042621
165	0x3e413c92	0.18870762
166	0xbe544b49	-0.20731844
167	0xbde3c1fa	-0.111209825
168	0xbd844b0e	-0.06459628
169	0x3d8729ae	0.06599747
170	0xbe0826ec	-0.13296098
171	0xbe1a1db0	-0.15050387
172	0xbdf767f5	-0.12080375
173	0xbda1af95	-0.07894818
174	0x3e5aa877	0.21353327
175	0x3cce96a9	0.025218325
176	0xbe6c5913	-0.23080854
177	0x3e1fe958	0.15616357
178	0x3e0ad19e	0.13556525
179	0x3d40b47f	0.047047134
180	0xbc8fdd0e	-0.017561462
181	0x3e9ad1fa	0.30238324
182	0x3ded3987	0.11583238
183	0x3e24bcda	0.16087666
184	0xbe4d68c7	-0.200595
185	0xbc046f3a	-0.008083159
186	0xbe1b18fb	-0.15146248
187	0x3e5fe393	0.21864156
188	0x3e19d3f8	0.15022266
189	0x3e32e30d	0.17469425
190	0x3e8c143b	0.27359185
191	0x3e2d561d	0.16927381
192	0x3de2a4db	0.110666
193	0xbe780d96	-0.24223933
194	0xbe81f65d	-0.25383273
195	0xbe6f958a	-0.23396888
196	0xbc31a35f	-0.010842173
197	0xbead382e	-0.33831924
198	0xbea88d3f	-0.32920262
199	0x3e725d61	0.23668434
200	0x3e681f6e	0.2266824
201	0xbe1b45d7	-0.1516336
202	0x3ba874aa	0.0051408606
203	0xbe15506e	-0.14581463
204	0x3e30872f	0.17239068
205	0xbe6b3409	-0.22969069
206	0xbdd00b9d	-0.10158465
207	0xbec4c124	-0.38428605
208	0x3e9f3e27	0.31102106
209	0x3ea0f8a4	0.31439698
210	0x3e48e1b4	0.19617349
211	0xbe54f14b	-0.20795171
212	0xbe7bbf9c	-0.24584812
213	0x3a51a25c	0.0007996911
214	0xbe901f37	-0.28148815
215	0x3ebeeebe	0.3729152
216	0x3ec18b16	0.37801427
217	0xbe5b246e	-0.21400616
218	0x3c405e17	0.011741183
219	0x3d8f2bfe	0.06990813
220	0xbd092ce4	-0.033490077
221	0x3d65c56a	0.05609647
222	0x3e82e800	0.25567627
223	0xbdadd7b3	-0.08488407
224	0x3dfde7df	0.123977415
225	0xbca9da20	-0.020733893
226	0x3c928c94	0.017889298
227	0xbd7260cc	-0.059174344
228	0x3e3053c6	0.17219457
229	0xbca907ac	-0.020633541
230	0xbd5e1620	-0.05422032
231	0x3e1470d2	0.14496163
232	0xbd67026c	-0.056398794
233	0xbe8f1a84	-0.27949917
234	0x3e293462	0.16523889
235	0xbcb8d151	-0.022560747
236	0x397bd2de	0.0002401578
237	0xbce081f5	-0.027405718
238	0x3ca2f90a	0.019894142
239	0xbde18b4c	-0.11012897
240	0xbe5c2da1	-0.21501781
241	0xbea28128	-0.31739163
242	0xbe1236e2	-0.14278749
243	0xbe07c960	-0.13260412
244	0xbdb4c6af	-0.088269584
245	0x3c2735fc	0.010205742
246	0x3e07aa41	0.1324854
247	0xbecd31b9	-0.40076998
248	0xbe1e1760	-0.15438604
249	0x3c05b9a4	0.008161936
250	0xbde1b017	-0.110199146
251	0x3c1ef193	0.0097011505
252	0x3e583008	0.21112072
253	0x3e480ab4	0.19535333
254	0xbe894554	-0.26810706
255	0x3ccfc933	0.025364494

transformer_encoder.layers.0.self_attn.out_proj.bias f4 [16]
0	0xbd5775c0	-0.05260253
1	0xbdcd3f77	-0.100218706
2	0xbd532e67	-0.051557925
3	0xbb64e320	-0.0034925416
4	0x3d067e3a	0.032835223
5	0xbb709799	-0.0036711453
6	0xbaa050e7	-0.0012231142
7	0x3e1b8d36	0.15190586
8	0x3d3a1360	0.045428634
9	0xbc28f9e5	-0.010313486
10	0xbd97e79e	-0.07417224
11	0xbda05eee	-0.078306064
12	0x3deeca7d	0.11659715
13	0xbce5688e	-0.028003957
14	0xbd4b28c0	-0.04959941
15	0x3d28fa20	0.041254163

transformer_encoder.layers.0.linear1.weight f4 [64, 16]
0	0xbce315db	-0.027720382
1	0x3e2bbe9f	0.16771935
2	0xbe4822cd	-0.19544525
3	0xbd0a61c5	-0.033784647
4	0xbe1b567b	-0.15169708
5	0xbef9693a	-0.48713094
6	0x3daea0f3	0.085267924
7	0x3c62a282	0.01383269
8	0xbe2aaebd	-0.1666822
9	0x3e2890e5	0.16461523
10	0xbe60df90	-0.21960282
11	0xbdb4d71a	-0.0883009
12	0xbdbf1079	-0.09329314
13	0x3da16012	0.07879652
14	0x3e972ec6	0.29527873
15	0xbe527324	-0.20551735
16	0xbddb3f85	-0.10705475
17	0xbe3c8dfd	-0.18413539
18	0x3cd77ceb	0.026304683
19	0xbe378f62	-0.1792579
20	0xbdf3bd44	-0.11901334
21	0x3e44942f	0.19197153
22	0x3d454d7b	0.048169594
23	0xbc889542	-0.016672734
24	0xbe12dfd9	-0.14343204
25	0x3d4555e0	0.0481776
26	0xbaf40765	-0.0018617926
27	0x3d970e42	0.07375766
28	0xbe8eaea6	-0.2786762
29	0xbdd3cc70	-0.10341728
30	0x3ddfcae6	0.10927372
31	0x3e8087ee	0.25103706
32	0x3ce61c88	0.028089777
33	0x3e0fc2c2	0.14039138
34	0xbd755cc9	-0.05990294
35	0xbd73c8bc	-0.059517607
36	0xbdd0472b	-0.10169824
37	0x3e80a59b	0.25126347
38	0xbd067049	-0.032821927
39	0x3d26c9b7	0.040719714
40	0xbe04ef48	-0.12981904
41	0x3df10d8b	0.11770161
42	0xbe1b950d	-0.15193577
43	0x3e27a55b	0.16371672
44	0x3d990d3e	0.07473229
45	0xbe4b2399	-0.19837798
46	0x3e39ff3b	0.18163769
47	0x3e266f63	0.16253428
48	0xbccad107	-0.024757875
49	0x3e69773b	0.22799389
50	0x3e8519db	0.2599629
51	0x3b1cdcf5	0.0023935412
52	0x3e8818d2	0.26581436
53	0x3e5ec617	0.21755253
54	0xbe77efbe	-0.24212548
55	0xbd4c900e	-0.04994207
56	0xbe65045e	-0.22364947
57	0x3d1dcedc	0.038527355
58	0x3bf4eb2b	0.0074743233
59	0x3e091c20	0.13389635
60	0x3d13d532	0.03609199
61	0x3defdc9e	0.11712001
62	0xbe706a16	-0.23477969
63	0x3eac1837	0.33612224
64	0xbe11f0ec	-0.1425206
65	0x3e06f160	0.13178015
66	0x3e24d3da	0.1609644
67	0x3da37ad9	0.07982416
68	0x3df5cc1e	0.12001823
69	0x3cb25c3b	0.021772495
70	0xbe065688	-0.13118947
71	0xbe2b182c	-0.1670844
72	0xbe5c372c	-0.21505421
73	0x3e108aa2	0.14115384
74	0x3e4d428f	0.20044921
75	0x3df88c09	0.121360846
76	0x3d31bdea	0.043394007
77	0x3d36cff6	0.04463192
78	0x3e57e8c4	0.21084887
79	0xbd617b9a	-0.055049516
80	0xbe5d6b03	-0.21622853
81	0x3e5776d3	0.21041422
82	0xbd514898	-0.05109462
83	0x3e3c656a	0.18398061
84	0xbdee0cbb	-0.11623522
85	0x3db282a4	0.08716324
86	0xbcee8533	-0.029116249
87	0xbcee965a	-0.029124428
88	0xbe3e24bd	-0.18568702
89	0x3d80a08d	0.06280623
90	0xbe3e10a4	-0.18561035
91	0xbdc9ba20	-0.09849954
92	0xbc1fcd25	-0.0097535
93	0xbd925c66	-0.0714653
94	0x3d86d48b	0.06583508
95	0xbd982e00	-0.07430649
96	0xbe5f6ac1	-0.21818067
97	0xbe7b4a95	-0.2454017
98	0xbe5b2f33	-0.21404724
99	0xbe505c39	-0.2034768
100	0xbd46a664	-0.048498526
101	0x3e19bf0c	0.15014285
102	0x3dc738e4	0.09727648
103	0xbdb43b88	-0.08800417
104	0x3e75751f	0.2397046
105	0xbe159fd1	-0.14611746
106	0xbe7a05e2	-0.24416307
107	0x3e1b28fe	0.15152356
108	0xbe6ef7d6	-0.2333673
109	0x3d91a8af	0.07112252
110	0xbe710c35	-0.23539813
111	0xbe26dc51	-0.16294982
112	0xbc5ecd39	-0.013598734
113	0xbcaf7828	-0.0214196
114	0xbd429f18	-0.047515005
115	0x3b3b7e5e	0.0028609256
116	0xbd1724f7	-0.036900487
117	0x3e59ee0d	0.21282215
118	0xbe71e93e	-0.23624131
119	0x3de13bef	0.109977596
120	0xbe5c5116	-0.21515307
121	0x3e37a546	0.1793414
122	0xbdff2d50	-0.124598145
123	0xbdaa8c9c	-0.083276
124	0x3dad4f54	0.08462396
125	0xbdb8f889	-0.09031779
126	0xbe0d1044	-0.13775736
127	0xbe80f7cd	-0.25189057
128	0xbd38a73b	-0.04508136
129	0x3e6c42b9	0.23072328
130	0x3e3a2119	0.18176688
131	0xbe3d3d6c	-0.18480462
132	0x3d0a71c7	0.033799913
133	0x3e9491db	0.2901753
134	0x3d46fc07	0.048580196
135	0xbdb17d36	-0.0866646
136	0xbe0d3b12	-0.13792065
137	0x3dd84781	0.10560513
138	0x3e23c777	0.15994059
139	0x3e2ce834	0.16885453
140	0xbe5f9bc2	-0.2183676
141	0x3d84b9ef	0.064807765
142	0x3e1276bb	0.14303105
143	0x3b820b29	0.0039686156
144	0x3e10a1a9	0.14124168
145	0x3e48e7e4	0.19619709
146	0xbcc4e168	-0.024033263
147	0xbe3fa637	-0.1871575
148	0x3cc29b5a	0.023755718
149	0xbe7a1683	-0.2442265
150	0xbe92df80	-0.28686142
151	0x3de6c5cc	0.112681955
152	0x3e0dc490	0.13844514
153	0xbd761f98	-0.060088724
154	0xbe39ab53	-0.18131761
155	0x3dbc3f9a	0.091918185
156	0x3da77a1f	0.081775896
157	0x3e041117	0.12897144
158	0x3d982ad5	0.074300446
159	0xbda5d1ce	-0.08096658
160	0xbd1203c6	-0.03564813
161	0xbd6b00ea	-0.05737392
162	0x3dff4bc4	0.12465623
163	0xbd12f55f	-0.035878535
164	0xbe2c2cf7	-0.16814028
165	0x3d18393a	0.03716395
166	0x3e1b9aea	0.15195814
167	0xbc9ebee5	-0.019378135
168	0xbd339ebf	-0.043852564
169	0xbbf6975d	-0.007525368
170	0xbc959e44	-0.018263943
171	0xbd06fe30	-0.032957256
172	0x3e31f0fb	0.17377083
173	0xbe4813f9	-0.19538869
174	0x3d9af30c	0.07565889
175	0x3d09247c	0.03348206
176	0x3e171b17	0.14756428
177	0x3d38ac41	0.04508615
178	0xbe06acec	-0.13151902
179	0xb9f089df	-0.0004587909
180	0xbde9d1be	-0.11416958
181	0x3e24c72f	0.16091608
182	0xbe44d337	-0.19221197
183	0x3e121457	0.14265572
184	0x3e8869e3	0.26643285
185	0x3da46f3d	0.080290295
186	0xbe4f63fe	-0.20252988
187	0x3ca4a342	0.020097379
188	0xbd0ad3a1	-0.03389323
189	0xbdf604b4	-0.12012616
190	0x3e2e45a0	0.17018747
191	0xbe64b2e7	-0.22333871
192	0xbe40f7a3	-0.18844466
193	0x3e3c517f	0.18390463
194	0xbe6840d9	-0.22680987
195	0x3b93efaa	0.004514654
196	0xbd86a87f	-0.06575107
197	0x3c562be6	0.01307199
198	0x3df4152c	0.11918101
199	0x3cb8bbc0	0.022550464
200	0xbdf53f7c	-0.11974999
201	0xbe2eff33	-0.17089538
202	0xbe61792f	-0.22018884
203	0xbcb28f2b	-0.021796783
204	0xbd7b581e	-0.061363332
205	0xbe989321	-0.2979975
206	0x3dab3ef6	0.08361618
207	0x3c624bcf	0.0138120195
208	0x3e73da76	0.23813805
209	0x3d4042d2	0.046938725
210	0x3e10e77e	0.14150807
211	0x3e3c9a91	0.18418337
212	0xbdd0d9cc	-0.101977915
213	0x3e93906d	0.28821126
214	0x3c8e757f	0.01739001
215	0x3e93bf68	0.2885697
216	0x3e9ff963	0.31244954
217	0xbdee8bec	-0.11647782
218	0xbd908bea	-0.070579365
219	0x3e8d7b15	0.27632967
220	0xbe8c10e8	-0.27356648
221	0x3e18d209	0.14923872
222	0xbe43d412	-0.19123867
223	0xbdd00466	-0.10157089
224	0x3e478a40	0.19486332
225	0xbd654fc4	-0.055984274
226	0x3d8f77b0	0.070052505
227	0xbe348485	-0.17628677
228	0xbe815315	-0.252587
229	0x3e14b5b2	0.14522436
230	0x3e2fc30c	0.17164248
231	0x3e33c77c	0.17556566
232	0x3e31411a	0.1730999
233	0x3d05edbd	0.032697428
234	0x3e51f53d	0.20503707
235	0x3e32a795	0.1744674
236	0x3da7954e	0.081827745
237	0xbeab601c	-0.33471763
238	0x3dfa8b24	0.1223357
239	0x3d2a01ab	0.041505497
240	0x3e3d5eb2	0.18493155
241	0x3e40f1f2	0.18842295
242	0x3e3cfcb2	0.1845577
243	0xbd80f2a7	-0.06296282
244	0xbddcb7e7	-0.10777264
245	0x3b42495f	0.0029645783
246	0xbe31b92b	-0.17355792
247	0x3d1afdfe	0.037839882
248	0xbd341869	-0.04396859
249	0x3d0e5cf1	0.034756605
250	0x3e2035a3	0.15645461
251	0x3d99d4af	0.07511269
252	0xbd7ff952	-0.06249363
253	0x3dc78612	0.09742369
254	0xbb2a1c23	-0.0025956712
255	0x3e561444	0.20906168

transformer_encoder.layers.0.linear1.bias f4 [64]
0	0x3e7ff4e6	0.24995765
1	0x3d4ce471	0.050022546
2	0x3cbf8325	0.023377964
3	0xbe012b4e	-0.12614176
4	0x3dcb9807	0.09941106
5	0x3bf5f7d6	0.007506351
6	0x3e38b078	0.18036067
7	0xbdb0a1d9	-0.0862462
8	0x3e72b001	0.23699953
9	0xbd96d160	-0.07364154
10	0xbd70eb7f	-0.058818337
11	0xbd4b824a	-0.0496848
12	0x3d04463a	0.032293536
13	0xbdb86a28	-0.09004623
14	0x3cf4f878	0.029903635
15	0xbe843bc4	-0.25826848
16	0xbd8b506a	-0.06802447
17	0xbd6be485	-0.05759098
18	0xbdbc64e6	-0.09198932
19	0x3c4b7af5	0.012419452
20	0xbca1db90	-0.019758016
21	0x3dd564a6	0.10419588
22	0xbe66bbf4	-0.22532636
23	0x3e2cc537	0.16872106
24	0x3e584618	0.21120489
25	0x3dc8dd4d	0.09807835
26	0xbccb8914	-0.024845637
27	0xbe2a7d48	-0.16649354
28	0xbe2877a8	-0.16451895
29	0x3e0c9e67	0.137323
30	0x3e2a4979	0.1662959
31	0x3bb026c4	0.005375715
32	0x3dedfc4b	0.11620387
33	0xbe021907	-0.1270486
34	0x3d7115e8	0.058858782
35	0x3e462045	0.19348247
36	0xbb6c390c	-0.0036044745
37	0xbe0696ff	-0.13143538
38	0x3dcb4636	0.09925501
39	0x3d6adb4e	0.05733805
40	0xbe2300db	-0.15918295
41	0x3d7c50dd	0.061600555
42	0x3e2ab57b	0.16670792
43	0x3e0b573f	0.136075
44	0x3d4c7994	0.049920633
45	0x3c83972c	0.016063295
46	0x3e15d9d2	0.14633873
47	0xbe1a01fc	-0.1503982
48	0xbe365b0c	-0.17808169
49	0xbd409ad2	-0.04702265
50	0xbbb2a188	-0.005451385
51	0x3e129dbf	0.14317988
52	0xbe3f6b11	-0.18693186
53	0x3eac5273	0.33656654
54	0xbe2f2c40	-0.17106724
55	0x3dc6867d	0.0969362
56	0x3dace9d4	0.08443037
57	0xbdb4f914	-0.088365704
58	0x3e908265	0.28224483
59	0xbe0ad66d	-0.1355836
60	0x3d2c913e	0.0421307
61	0x3e4fa15b	0.20276396
62	0x3e5d7a15	0.21628602
63	0x3e8c32b3	0.2738243

transformer_encoder.layers.0.linear2.weight f4 [16, 64]
0	0xbe19e4aa	-0.15028635
1	0x3dbe5fce	0.09295617
2	0x3daebccf	0.08532106
3	0x3c31336c	0.010815483
4	0xbbc59d20	-0.0060306937
5	0x3d128895	0.035774786
6	0x3ccc3c07	0.024930967
7	0x3b425642	0.0029653464
8	0xbd7d1f3e	-0.061797373
9	0xbe197d86	-0.1498929
10	0x3d74d699	0.05977497
11	0xbda41a3c	-0.08012816
12	0xbd00688a	-0.031349696
13	0xbdaee9c7	-0.08540683
14	0xbca7f632	-0.020503137
15	0xbd99c73e	-0.075087056
16	0xbddc8d00	-0.10769081
17	0xbdc42f5d	-0.09579346
18	0x3d3922f1	0.04519934
19	0x3da5b07a	0.08090301
20	0x3d5523d0	0.052036107
21	0x3cd7e77f	0.026355503
22	0xbe1cd121	-0.15314151
23	0xbd920f6b	-0.07131847
24	0x3d7e0731	0.062018577
25	0xbe124754	-0.14285022
26	0xbd4c888c	-0.04993491
27	0xbd7ef11f	-0.06224167
28	0xbe11a69e	-0.14223716
29	0xbde7668b	-0.112988554
30	0xbd1e7277	-0.03868338
31	0xbdf9c86d	-0.12196431
32	0xbcda3168	-0.026634887
33	0xbe080077	-0.13281427
34	0xbd94cd5a	-0.0726573
35	0xbcc8c9eb	-0.024510344
36	0xbe2e1826	-0.170014
37	0xbdbdbf3d	-0.092649914
38	0x3def445e	0.11682962
39	0x3d0e1838	0.034691066
40	0xbd126c64	-0.0357479
41	0xbd385b96	-0.04500922
42	0x3c6d3473	0.014477837
43	0xbdd419e3	-0.103565
44	0xbd154307	-0.036440875
45	0x3c726160	0.014793724
46	0xbd7807ba	-0.060554244
47	0xbe2c00ea	-0.16797224
48	0xbbca029f	-0.0061648632
49	0xbc186f73	-0.009303915
50	0xbd3e9785	-0.04653122
51	0xbd7ff130	-0.062485874
52	0x3ce841af	0.028351633
53	0xbdd156db	-0.102216445
54	0x3c74b895	0.014936586
55	0xbd562823	-0.05228437
56	0x3c9163a0	0.0177477
57	0xbe110110	-0.14160562
58	0xbc460e1e	-0.012088327
59	0x3854e54e	5.0758295e-05
60	0xbdb4ba16	-0.088245556
61	0x3c689bc3	0.014197293
62	0xbd89e27b	-0.06732651
63	0xbde366de	-0.11103605
64	0xbe5517b8	-0.20809829
65	0x3c02e313	0.007988709
66	0xbe11e350	-0.14246869
67	0xbe2be72c	-0.16787404
68	0xbd5f4b58	-0.054515213
69	0xbd9f47cb	-0.07777365
70	0xbc3adf73	-0.0114058135
71	0x3c67edd2	0.014155822
72	0x3be32c26	0.006932753
73	0xbe5df2f3	-0.21674709
74	0xbcb4294c	-0.021992348
75	0x3cd4b59b	0.025965502
76	0xbe0a7abd	-0.13523383
77	0xbe00a11a	-0.12561455
78	0xbcc15b71	-0.023603173
79	0xbba825d2	-0.0051314617
80	0xbcdd7485	-0.0270331
81	0xbccb0ade	-0.024785455
82	0xbd89c0af	-0.067262046
83	0xbe14bb24	-0.14524513
84	0x3d73e7c8	0.059547216
85	0xbe0a7006	-0.13519296
86	0x3da83d66	0.08214836
87	0xbe4f445c	-0.20240921
88	0xbddf3572	-0.10898866
89	0x3d560b88	0.05225709
90	0xbe6ca774	-0.23110753
91	0xbd098e5e	-0.033583038
92	0x3d5d00c1	0.053955797
93	0xbe03c9f6	-0.1287001
94	0x3d1a1640	0.037618876
95	0xbad00703	-0.001587123
96	0xbd5f9bc2	-0.0545919
97	0x3ca4ab19	0.020101117
98	0x3cf1da96	0.029523175
99	0xbe1a84e6	-0.15089759
100	0xbdd554e2	-0.10416581
101	0x3ba61d7e	0.0050694337
102	0xbcec25f2	-0.028826687
103	0x3d503d6a	0.05083982
104	0xbdab122d	-0.08353076
105	0xbc2b814d	-0.010467839
106	0xbdfec75c	-0.124403685
107	0xbd1e1ff0	-0.038604677
108	0xbd17734d	-0.036975194
109	0xbde46e47	-0.11153846
110	0xbdabe617	-0.083934955
111	0xbe310ee5	-0.17290838
112	0xbe23151f	-0.15926026
113	0x3c3f7f22	0.011688026
114	0xbc76e37a	-0.015068883
115	0x3bc29599	0.0059382436
116	0x3c8e3bed	0.01736256
117	0xbd8675fc	-0.065654725
118	0x3cb9b77c	0.0226705
119	0xbd8ab629	-0.067730255
120	0x3d8fea1e	0.07027076
121	0x3db26735	0.087110914
122	0xbe3b515c	-0.18292755
123	0x3c72d24e	0.014820648
124	0xbdd943bc	-0.106086224
125	0xbda951c4	-0.08267549
126	0xbd3b85df	-0.045781966
127	0x3cb317d3	0.021861946
128	0xbd9cf004	-0.07662967
129	0xbc6e216f	-0.014534338
130	0xbc8d4bb7	-0.017248018
131	0xbd97f89d	-0.07420466
132	0xbc290636	-0.010316422
133	0x3db0b98b	0.086291395
134	0x3d8eae21	0.06966806
135	0x3d9ed5fb	0.07755657
136	0x3b9e8112	0.0048371637
137	0x3cf6d854	0.03013245
138	0xbe0dbd56	-0.13841757
139	0xbd36d5ca	-0.04463748
140	0xbd68ad47	-0.056805875
141	0x3dee9700	0.11649895
142	0x3cccf498	0.025018975
143	0x3d8a6adf	0.06758665
144	0xbe1e9015	-0.1548465
145	0xbde390ad	-0.11111579
146	0x3d7f5467	0.06233635
147	0xbb16db2f	-0.0023018827
148	0xbc505a65	-0.012716864
149	0x3d920349	0.07129533
150	0xbd6273b8	-0.05528614
151	0xbc4445bf	-0.011979519
152	0xbdc44a5f	-0.09584498
153	0x3de1d433	0.11026802
154	0xbdd171be	-0.10226773
155	0xbe10c0ce	-0.14136049
156	0xbd477164	-0.048692122
157	0x3dbfe340	0.093695164
158	0xbd24f2be	-0.04027056
159	0xbd12eca8	-0.035870224
160	0x3dc9689f	0.09834408
161	0x3dc00023	0.09375026
162	0xbade26e5	-0.0016948847
163	0x3e004eee	0.1253011
164	0xbe2fe91e	-0.17178771
165	0x3d745b6c	0.0596575
166	0xbcc20de2	-0.02368826
167	0xbc87030a	-0.016480941
168	0x3dfb4cf1	0.12270535
169	0x3d84b6e9	0.064802
170	0x3d00aec5	0.031416673
171	0xbd1d841e	-0.038456075
172	0xbd7fae7e	-0.062422268
173	0xbdb89674	-0.09013072
174	0x3d9f250f	0.0777074
175	0x3d01d192	0.031694002
176	0x3e18151d	0.14851804
177	0xbdba6a40	-0.09102297
178	0x3d494c7f	0.049145218
179	0x3da1475f	0.07874941
180	0xbc8740d1	-0.016510399
181	0xbda74a10	-0.08168423
182	0x3d3cc618	0.046087354
183	0xbd0f9c86	-0.03506138
184	0xbdcb3c28	-0.09923583
185	0xbdc50ac9	-0.09621198
186	0xbdd9aeef	-0.10629069
187	0x3dea5b84	0.114432365
188	0xbda55c9c	-0.080743045
189	0xbdbe2dbf	-0.09286069
190	0xbd0fe7c1	-0.035133127
191	0xbd8d23e4	-0.06891611
192	0xbc903e1c	-0.017607741
193	0x3daadfa3	0.083434366
194	0xbd12415c	-0.035706863
195	0xbda9d6bf	-0.08292913
196	0x3dada356	0.084784195
197	0xbd860b88	-0.06545168
198	0xbdb6c668	-0.08924562
199	0xbd3a454b	-0.04547624
200	0x3c29b664	0.010358427
201	0x3e1ee8e5	0.1551853
202	0xbd99183e	-0.07475327
203	0xbdbcc955	-0.092180885
204	0x3b0cc20b	0.0021477963
205	0xbdba45b4	-0.09095326
206	0x3bd1fc8e	0.0064082807
207	0xbcaa3849	-0.020778792
208	0xbce14e09	-0.02750303
209	0xbd51d6f4	-0.051230386
210	0x3b79d882	0.0038123433
211	0x3c9be669	0.019030767
212	0xbd2fee1c	-0.04295169
213	0x3d15ea58	0.03660044
214	0x3d0dec0b	0.034648936
215	0x3c45c97c	0.012071963
216	0xbe2baa4c	-0.16764182
217	0xbd46eb4e	-0.048564248
218	0x3c6e6d1e	0.014552383
219	0x3db5d4b2	0.08878459
220	0xba580d22	-0.0008241703
221	0x3d8a48f3	0.06752195
222	0x3da05d62	0.07830311
223	0x3cb74194	0.022370137
224	0x3d5e12f1	0.054217283
225	0xbd5f42f0	-0.054507196
226	0xbdaa8053	-0.08325257
227	0x3de9cb2b	0.11415704
228	0xbdc84f21	-0.09780718
229	0xbde1f1b2	-0.11032428
230	0xbe1f38c5	-0.15549
231	0xbdf90e0f	-0.121608846
232	0xbcfc77a7	-0.030818773
233	0xbd845a00	-0.06462479
234	0x3d02f73f	0.031974073
235	0xbd708bdf	-0.05872714
236	0xbd05023e	-0.03247284
237	0x3c8ca463	0.01716823
238	0xbc2d5ec1	-0.010581673
239	0xbd844a29	-0.064594574
240	0xbd829203	-0.06375506
241	0x3d185abb	0.037195902
242	0xbc8175a7	-0.015803171
243	0xbc9cbef8	-0.01913403
244	0xbe09fcfc	-0.13475412
245	0xbdbf0119	-0.09326381
246	0x3dfb9612	0.12284483
247	0x3cac1ff8	0.021011338
248	0x3de8d9e0	0.11369681
249	0xbdb94404	-0.09046176
250	0xbcf81991	-0.030285629
251	0xbd12546f	-0.035725053
252	0xbd550b01	-0.052012447
253	0x3caf2eb8	0.021384582
254	0x3d75a9f7	0.059976544
255	0xbd8a1907	-0.06743055

transformer_encoder.layers.0.linear2.bias f4 [16]
0	0x3c25a63a	0.010110432
1	0xbd287ad4	-0.041132763
2	0xbdc84513	-0.097788
3	0xbcef6687	-0.029223694
4	0x3ca31347	0.019906653
5	0x3d88f739	0.06687779
6	0xbd3c19f1	-0.045923177
7	0xbcc68742	-0.024234418
8	0x3e08ef05	0.13372429
9	0xbdb845dc	-0.089976996
10	0x3d5a9012	0.053360052
11	0x3d4d14d9	0.05006871
12	0x3d801097	0.06253164
13	0x3dabfd03	0.083978675
14	0x3aa2279d	0.0012371425
15	0x3bfed423	0.0077767535

transformer_encoder.layers.0.norm1.weight f4 [16]
0	0x3f450585	0.7696155
1	0x3f59f6ae	0.8514203
2	0x3f605f48	0.8764539
3	0x3f529e26	0.82272565
4	0x3f791017	0.97290176
5	0x3f9012e5	1.1255766
6	0x3f946181	1.1592256
7	0x3f7fb1b1	0.9988051
8	0x3f8498a3	1.0359081
9	0x3f4fdf68	0.81200266
10	0x3f8acd0b	1.0843824
11	0x3f5b94e3	0.8577406
12	0x3f8fabaa	1.1224263
13	0x3f5edcb4	0.87055516
14	0x3f587956	0.84560144
15	0x3f73e510	0.95271397

transformer_encoder.layers.0.norm1.bias f4 [16]
0	0xbd9ba5c3	-0.07599976
1	0xbe2c448a	-0.1682302
2	0x3ba1dbd7	0.004939537
3	0xbd0d52c3	-0.034502756
4	0x3dd78453	0.10523286
5	0xbc4898b0	-0.012243435
6	0xbdd0b9e8	-0.10191709
7	0x3eb732e9	0.3578103
8	0x3e1c8633	0.15285568
9	0x3d0dc748	0.034613878
10	0xbe8fe487	-0.2810404
11	0xbe2cf22f	-0.1688926
12	0x3e6b4a03	0.22977452
13	0xbe3da752	-0.18520859
14	0xbc3cefdc	-0.011531796
15	0x3db8f9f1	0.090320475

transformer_encoder.layers.0.norm2.weight f4 [16]
0	0x3f4ec1c9	0.8076444
1	0x3f6cf8b4	0.9256699
2	0x3f5c11d0	0.8596468
3	0x3f5c7a89	0.86124474
4	0x3f7ea761	0.9947415
5	0x3f6026aa	0.87558997
6	0x3f899a5b	1.075023
7	0x3f870d35	1.0550905
8	0x3f883b50	1.0643101
9	0x3f575784	0.84117913
10	0x3f82ce0f	1.0219134
11	0x3f6fc240	0.93655777
12	0x3f9c419e	1.2207525
13	0x3f68b980	0.9090805
14	0x3f4c6f70	0.7985754
15	0x3f7180ff	0.9433746

transformer_encoder.layers.0.norm2.bias f4 [16]
0	0xbdcf411c	-0.101198405
1	0xbe6d13de	-0.2315211
2	0xbc931dba	-0.01795851
3	0xbcff4f6b	-0.0311658
4	0x3e0188e8	0.12649882
5	0xbd50bcc9	-0.05096129
6	0xbdf37cc4	-0.118890315
7	0x3ecb844c	0.39749372
8	0x3e3bb5f7	0.18331133
9	0x3d23785d	0.03990971
10	0xbe9b5eb9	-0.30345705
11	0xbe6ef53f	-0.23335741
12	0x3ea1edb0	0.31626654
13	0xbe8209d5	-0.25398126
14	0x3d4199d8	0.047265857
15	0x3de3c168	0.11120874

transformer_encoder.layers.1.self_attn.in_proj_weight f4 [48, 16]
0	0xbece76d4	-0.40325034
1	0xbdad2bf8	-0.08455652
2	0xbe9d85e3	-0.3076621
3	0xbbed1147	-0.0072347256
4	0xbe782334	-0.24232179
5	0xbd388453	-0.04504807
6	0xbdf548b3	-0.11976757
7	0xbdb14486	-0.08655648
8	0x3e290782	0.1650677
9	0x3e027397	0.12739407
10	0xbea3bd5c	-0.31980407
11	0xbe1be8b6	-0.15225491
12	0x3e193502	0.14961627
13	0x3df8a049	0.12139947
14	0x3e31a2ac	0.1734721
15	0x3ed6a3ed	0.4192194
16	0xbe52f6bf	-0.20601939
17	0xbe944c46	-0.28964442
18	0xbe20263f	-0.1563959
19	0xbe56e564	-0.20985943
20	0xbe3c8674	-0.18410665
21	0x3e499cde	0.19688746
22	0xbe71f174	-0.23627263
23	0xbd302e35	-0.043012816
24	0x3e6c7faf	0.23095582
25	0x3e1e65a3	0.15468459
26	0x3e26e59f	0.16298531
27	0xbe28554f	-0.16438793
28	0x3c14c753	0.009080726
29	0x3ccb9d2d	0.02485522
30	0x3bad8ca1	0.0052963053
31	0x3e2e446c	0.17018288
32	0x3e31bd0c	0.17357272
33	0xbea526d0	-0.32256174
34	0x3ea2f1e3	0.3182517
35	0x3e92f1bd	0.28700057
36	0xbe334b4b	-0.1750919
37	0xbe12fbb3	-0.14353828
38	0xbd311a83	-0.043238174
39	0x3dd3614b	0.103212915
40	0xbd5ee880	-0.054420948
41	0x3d515bed	0.051113058
42	0xbe6a57eb	-0.228851
43	0xbe17554a	-0.14778629
44	0x3e831d1c	0.25608146
45	0xbe13dd82	-0.14439967
46	0x3dd1f5f2	0.102519885
47	0x3e8ef6f9	0.279228
48	0x3d117f9e	0.035522096
49	0xbe5211bb	-0.20514576
50	0x3da18b70	0.07887924
51	0x3d72c140	0.05926633
52	0xbe55f489	-0.20894064
53	0x3e6f0bad	0.23344298
54	0xbe89e933	-0.2693573
55	0x3e6b38da	0.22970906
56	0x3d01543c	0.031574473
57	0xbe3db129	-0.18524612
58	0xbe9762e9	-0.2956765
59	0xbdc757eb	-0.09733566
60	0x3eb1088b	0.3457683
61	0xbe2468f4	-0.16055661
62	0x3b1c36c6	0.0023836358
63	0x3e827f92	0.25487953
64	0xbd7cfd4e	-0.061765008
65	0x3bdfc9e4	0.006829487
66	0x3e35e10d	0.17761631
67	0x3cf78baf	0.030217974
68	0x3e91e2e5	0.2849342
69	0x3e9448c2	0.2896176
70	0xbe110be8	-0.14164698
71	0xbe21a439	-0.15785302
72	0x3e8880c8	0.26660752
73	0x3e2a5c0d	0.16636677
74	0x3ddf4e6f	0.10903632
75	0xbd8d1f2d	-0.06890712
76	0x3e6cbc31	0.23118664
77	0xbde7dce4	-0.113214284
78	0xbe8bda22	-0.2731486
79	0xbd38cb57	-0.045115795
80	0x3e1efdb1	0.15526463
81	0xbcaa1fa2	-0.020767037
82	0xbe3d5f01	-0.18493272
83	0x3dbc3b29	0.091909714
84	0x3d1d02d3	0.03833277
85	0xbea472de	-0.32118887
86	0x3e3da9f7	0.18521868
87	0x3e9f6f25	0.31139484
88	0x3e45369d	0.19259115
89	0xbdcb666e	-0.09931646
90	0xbd4f5876	-0.050621472
91	0x3dd3e5ef	0.10346591
92	0xbe0fdab8	-0.14048278
93	0x3e88d90a	0.26728088
94	0xbe29033e	-0.16505143
95	0x3e6326fe	0.22182843
96	0xbd8c1ba4	-0.068412095
97	0xbe31f636	-0.17379078
98	0x3ded7b93	0.115958355
99	0xbe2c6e99	-0.16839065
100	0xbe32deac	-0.17467755
101	0x3e7a9240	0.24469852
102	0xbdd30fd8	-0.10305756
103	0xbd96dc7e	-0.07366274
104	0xbe335e6d	-0.1751649
105	0x3e65bd06	0.22435388
106	0x3e969b2f	0.2941527
107	0x3d95750f	0.07297718
108	0x3e055a10	0.13022637
109	0x3ec99cc8	0.39377427
110	0x3df81f04	0.12115291
111	0x3d2a3824	0.041557446
112	0xbe37c8cc	-0.17947692
113	0xbe471cc2	-0.19444564
114	0x3e921a82	0.2853585
115	0x3cc03fcc	0.02346792
116	0xbd9cfde6	-0.07665615
117	0x3e444177	0.19165598
118	0xbb617a14	-0.003440504
119	0xbdbc3c07	-0.09191137
120	0xbe93db22	-0.28878123
121	0x3e81833f	0.25295445
122	0x3e92b40a	0.28652984
123	0xbe078148	-0.1323291
124	0x3e912d66	0.2835495
125	0x3dfbfe0d	0.12304316
126	0xbe9a0249	-0.30079868
127	0xbe9cfdb6	-0.30662316
128	0xbd9b3ff5	-0.07580558
129	0x3dac161d	0.08402655
130	0xbe61cc8d	-0.22050686
131	0xbe6117eb	-0.2198178
132	0xbeafec75	-0.3436009
133	0x3e1ea364	0.15492016
134	0xbddd8869	-0.10817034
135	0xbe16338d	-0.14668103
136	0xbe9819fd	-0.29707327
137	0xbe99aa8a	-0.30012923
138	0x3ebd7e2b	0.3701032
139	0x3dbc0241	0.091801174
140	0xbe87a2cf	-0.264914
141	0xbe101d7f	-0.14073752
142	0xbe42fbb1	-0.19041325
143	0xbd1a0af0	-0.037608087
144	0x3e4b2a79	0.19840421
145	0xbe15560d	-0.14583607
146	0xbd023063	-0.031784426
147	0x3c94c475	0.018160084
148	0x3dfbb623	0.12290599
149	0x3e54bc72	0.20775011
150	0x3ea42bd9	0.32064703
151	0xbdc0b919	-0.094103046
152	0x3e406c89	0.18791403
153	0xbe37ff84	-0.17968565
154	0x3e672368	0.225721
155	0xbe7a57b2	-0.24447516
156	0xbcd46c2b	-0.025930485
157	0x3c000215	0.007812996
158	0xbe915d4f	-0.283915
159	0x3e20f412	0.15718105
160	0xbe6e2566	-0.23256454
161	0xbe71941d	-0.23591657
162	0xbd9e13ec	-0.077186435
163	0x3e55ef87	0.20892154
164	0xbda8cc9d	-0.08242152
165	0x3e83a33a	0.2571047
166	0xbdd30c1b	-0.10305043
167	0x3e06ef17	0.13177143
168	0x3e05ea66	0.13077697
169	0x3e070a3a	0.13187495
170	0x3cd0ef65	0.025504777
171	0xbea9adab	-0.3314031
172	0xbe5f3c38	-0.21800315
173	0x3d867cc8	0.06566769
174	0x3e27975b	0.16366331
175	0x3d07e39d	0.033176053
176	0xbdc89b92	-0.09795298
177	0x3e0bb692	0.13643864
178	0xbca7d139	-0.020485507
179	0x3e4c3ad4	0.19944316
180	0xbe2d973c	-0.16952223
181	0x3e10845b	0.1411299
182	0xbd8f461b	-0.069957934
183	0xbe7d714d	-0.24750252
184	0xbe1f064f	-0.1552975
185	0xbe73075b	-0.23733275
186	0x3e76f64a	0.2411739
187	0x3dcae213	0.099064015
188	0xbe51e388	-0.20496953
189	0x3e87ade8	0.26499867
190	0x3e29c41e	0.16578719
191	0xbe25a2e0	-0.16175413
192	0x3e40ef1b	0.18841211
193	0x3d520b7d	0.051280487
194	0xbe4b82d6	-0.19874129
195	0x3e07473d	0.13210769
196	0x3eae2e67	0.34019777
197	0x3e78b6f7	0.24288546
198	0xbe374cab	-0.1790034
199	0x3d9edc2d	0.07756839
200	0x3dcac030	0.09899938
201	0x3e1173f9	0.14204396
202	0x3e4df43b	0.20112698
203	0xbe50cf24	-0.20391518
204	0x3e84f24f	0.25966117
205	0xbc59547d	-0.0132647725
206	0x3d761892	0.060082026
207	0xbaf94046	-0.0019016347
208	0xbe998e1a	-0.29991227
209	0xbe0f8df0	-0.14018989
210	0xbe98152b	-0.2970365
211	0xbeb2fd05	-0.34958664
212	0x3e9804c0	0.29691124
213	0x3e1ed2c6	0.15510091
214	0x3e04b166	0.12958297
215	0x3e25f50d	0.1620676
216	0xbdb1e346	-0.08685927
217	0xbd1fd471	-0.03902096
218	0x3e725c70	0.23668075
219	0xbe314112	-0.17309979
220	0x3e430a2f	0.19046853
221	0xbe22ae29	-0.1588675
222	0xbe3a943d	-0.18220611
223	0x3e9719de	0.29511923
224	0x3eab7f10	0.33495378
225	0xbe558ac6	-0.20853719
226	0x3e3857d6	0.18002257
227	0xbdbc8a56	-0.09206073
228	0x3e81f640	0.25383186
229	0x3cc96680	0.024585009
230	0x3e0ccaf0	0.1374929
231	0xbcabed8c	-0.020987295
232	0x3dedba6d	0.116078235
233	0xbe59c21f	-0.21265458
234	0x3dca6633	0.09882774
235	0xbe2e5840	-0.17025852
236	0xbe33b019	-0.17547645
237	0x3e8a3e2f	0.27000567
238	0x3e3d5440	0.1848917
239	0x3e42ec56	0.19035468
240	0x3e57b532	0.21065214
241	0x3d3fc99c	0.04682313
242	0xbe664a6a	-0.22489324
243	0x3e94e8c8	0.29083848
244	0xbd4933a4	-0.049121514
245	0xbc9e3b73	-0.019315457
246	0xbe3d8a7e	-0.18509862
247	0x3df756af	0.120770805
248	0x3e8d3456	0.27578992
249	0x3c0e21cf	0.008675053
250	0x3d929ce0	0.07158828
251	0x3e4cb51f	0.19990967
252	0x3df54cc2	0.11977531
253	0x3e7df5c6	0.24800786
254	0xbdb1720c	-0.08664331
255	0xbdd82f18	-0.105558574

transformer_encoder.layers.1.self_attn.in_proj_bias f4 [48]
0	0x3d50b55b	0.050954204
1	0x3cf86b2d	0.030324543
2	0x3c83c019	0.01608281
3	0x3bc575d9	0.0060260114
4	0x3b59c586	0.0033229305
5	0x3d21018b	0.039308112
6	0xbd8c11c1	-0.06839324
7	0xbd7c0115	-0.06152447
8	0xbd937097	-0.07199209
9	0xbd8939e1	-0.06700493
10	0xbcdf837b	-0.027284374
11	0xb9cab8bf	-0.0003866609
12	0x3d00bed1	0.031431977
13	0x3cf0e965	0.029408166
14	0xbc3eb6b7	-0.011640242
15	0xbc61de68	-0.013785936
16	0x350db990	5.279662e-07
17	0x34854e60	2.4830206e-07
18	0x3590ad45	1.0779264e-06
19	0x3608657e	2.0324655e-06
20	0x34ef589d	4.4581694e-07
21	0xb5153c27	-5.559436e-07
22	0x35ce0f01	1.5352563e-06
23	0xb61815fa	-2.2662557e-06
24	0x351b1136	5.7767045e-07
25	0xb4cc444f	-3.8047662e-07
26	0x353bf69e	7.0021804e-07
27	0xb4cdc5a1	-3.832802e-07
28	0xb5abc0af	-1.2796571e-06
29	0xb5bd0884	-1.4084076e-06
30	0x35a73752	1.245857e-06
31	0xb588230a	-1.0142987e-06
32	0xbd0f8b65	-0.035045046
33	0xbd306da2	-0.043073304
34	0xbda20982	-0.0791197
35	0xbc57f78a	-0.0131815765
36	0x3d3c2347	0.04593208
37	0xbd922fcd	-0.071380235
38	0xbc5693cc	-0.013096761
39	0xbc06d674	-0.008229841
40	0x3d361443	0.044452917
41	0x3b10e1b1	0.0022107179
42	0xbd21cd66	-0.039502524
43	0x3d056128	0.03256336
44	0x3d0cf946	0.034417413
45	0x3a6b082e	0.00089657574
46	0xbcdb0960	-0.026737869
47	0xbd863228	-0.06552535

transformer_encoder.layers.1.self_attn.out_proj.weight f4 [16, 16]
0	0x3dccacc9	0.09993894
1	0xbe16dec1	-0.14733411
2	0xbd92aa15	-0.07161347
3	0x3d57132d	0.05250852
4	0x3d86c652	0.06580795
5	0xbccf05fc	-0.025271408
6	0x3dc9b970	0.098498225
7	0x3e37b5ef	0.17940496
8	0xbe130903	-0.14358906
9	0xbe12600d	-0.14294453
10	0xbe0e05ba	-0.13869372
11	0x3d26c1de	0.04071223
12	0x3e10aece	0.14129183
13	0x3e364d80	0.17803001
14	0x3c3ca287	0.011513359
15	0x3e31a4d6	0.17348036
16	0x3ded4014	0.115844876
17	0xbd61b1b6	-0.05510112
18	0xbc6e3885	-0.0145398425
19	0xbe41391c	-0.18869442
20	0xbe32a396	-0.17445216
21	0x3e087af0	0.13328147
22	0xbe19b573	-0.15010624
23	0xbc879aac	-0.016553245
24	0xbe42c24c	-0.19019431
25	0xbda7e4e2	-0.08197953
26	0x3e042038	0.12902915
27	0x3d874302	0.066045776
28	0x3e63af1d	0.22234769
29	0xbe5b5b2e	-0.21421501
30	0x3da00439	0.078133054
31	0x3e00b8a3	0.12570433
32	0xbb91eee7	-0.004453528
33	0xbe477934	-0.19479829
34	0xbdd2110d	-0.102571584
35	0xbe91aa3c	-0.2845019
36	0xbd05e2ab	-0.03268687
37	0xbdda2a7b	-0.10652634
38	0x3e0dc5c1	0.13844968
39	0xbcef14f5	-0.029184798
40	0x3df893e3	0.12137582
41	0x3e22d1a7	0.15900289
42	0xbe4c2766	-0.19936904
43	0xbe5509ad	-0.20804472
44	0x3e50b4eb	0.20381515
45	0x3e32b0f5	0.17450316
46	0xbe34415d	-0.17603059
47	0x3dd3a4bc	0.10334155
48	0xbe2d1c6f	-0.16905378
49	0xbe0f7768	-0.14010394
50	0x3e00dd28	0.12584364
51	0xbdc7874d	-0.097426035
52	0xbdd161ef	-0.102237575
53	0x3db82818	0.08992022
54	0x3e22f928	0.15915358
55	0xbd349f74	-0.04409738
56	0x3e83d67d	0.2574958
57	0x3e120d2c	0.14262837
58	0x3b956f9e	0.004560425
59	0xbe09373b	-0.13399975
60	0xbdf3529d	-0.118809916
61	0x3e25565b	0.16146223
62	0x3c4f9fa2	0.012672337
63	0x3d4d8e58	0.050184578
64	0x3d4833eb	0.048877638
65	0xbde391ac	-0.11111769
66	0xbcae36b4	-0.021266319
67	0x3c9ec2b1	0.019379945
68	0xbe12d798	-0.14340055
69	0xbe3b9f51	-0.18322493
70	0xbe2f3ba3	-0.17112593
71	0x3bd8d1d9	0.0066168127
72	0x3c446407	0.011986739
73	0x3dea6488	0.11444956
74	0xbdcedb03	-0.10100367
75	0xbdaf5a7f	-0.08562183
76	0x3d8c916b	0.06863674
77	0xbd187008	-0.037216216
78	0xbdcc2fe0	-0.09970069
79	0xbe45a485	-0.1930104
80	0xbe2cfe29	-0.1689383
81	0xbcd1dc8e	-0.025617864
82	0x3e87c316	0.26516026
83	0x3d793608	0.060842544
84	0x3e311681	0.17293741
85	0xbe4ee16f	-0.20203184
86	0x3e879d48	0.26487184
87	0x3e30a501	0.17250444
88	0xbd73f651	-0.059561078
89	0x3e0f9912	0.14023235
90	0x3d8479e6	0.06468563
91	0x3e0c4f0d	0.1370203
92	0xbdc0c2b5	-0.094121374
93	0x3d56c6ee	0.052435808
94	0xbdf43702	-0.119245544
95	0x3dda1113	0.10647788
96	0x3c5668cf	0.013086512
97	0x3e589bc2	0.21153167
98	0x3ca9599b	0.02067261
99	0xbdd40534	-0.10352555
100	0xbe11c79d	-0.14236303
101	0x3e315699	0.1731819
102	0xbdfef476	-0.12448971
103	0xbd99bc7a	-0.07506652
104	0xbdd8c3f4	-0.1058425
105	0xbd288603	-0.04114343
106	0x3e95871c	0.29204643
107	0xbd9570b3	-0.07296886
108	0xbdf2fc99	-0.118645854
109	0xba1495a0	-0.0005668048
110	0x3da47d74	0.08031741
111	0x3d5022d6	0.050814472
112	0xbe8312c3	-0.25600252
113	0xbe44c9bc	-0.1921758
114	0x3e286a5a	0.1644682
115	0xbdb90bf5	-0.09035484
116	0xbde32f8d	-0.11093054
117	0x3dc256d2	0.09489216
118	0xbe911a99	-0.28340605
119	0x3d833121	0.06405855
120	0x3e57a4f2	0.21059015
121	0xbd61bb9e	-0.055110566
122	0xbe0058db	-0.12533896
123	0x3d129a72	0.03579182
124	0xbce016f3	-0.027354693
125	0xbdd27133	-0.10275497
126	0xbddbf7d7	-0.10740631
127	0xbe8bf622	-0.27336222
128	0xbcb29100	-0.021797657
129	0xbe34bcbc	-0.17650121
130	0xbe75d1d7	-0.24005829
131	0x3d34aa46	0.044107698
132	0x3e6fb7f9	0.23410024
133	0x3d741603	0.059591305
134	0xbc9b5d05	-0.018965254
135	0x3e0ebe8e	0.13939878
136	0x3e6454b6	0.2229794
137	0x3e87f432	0.26553494
138	0xbe218b44	-0.15775782
139	0x3e03fc5a	0.12889233
140	0x3d4ab492	0.04948861
141	0x3d909006	0.0705872
142	0x3dd8b632	0.10581626
143	0xbe6d246b	-0.23158424
144	0xbe69c8b9	-0.22830476
145	0xbdb63cda	-0.08898325
146	0x3da1756a	0.07883723
147	0xbe0addf4	-0.13561231
148	0xbc01288d	-0.007883203
149	0xbcf0e1bb	-0.029404512
150	0xbdfe47ee	-0.12416063
151	0x3e02cac3	0.1277266
152	0xbd7fbaa4	-0.062433854
153	0x3d5496ad	0.051901508
154	0x3d3df672	0.046377607
155	0xbe3abf20	-0.18236971
156	0xbc955e49	-0.018233435
157	0xbbd22fa2	-0.0064143697
158	0xbd1acf7e	-0.037795536
159	0xbe22f8d5	-0.15915234
160	0x3d0fe220	0.03512776
161	0x3e16737c	0.14692491
162	0x3b8ccade	0.0042966446
163	0x3e469eb1	0.19396473
164	0xbde607c2	-0.112319484
165	0x3e1b4b01	0.1516533
166	0xbe0c35e7	-0.13692437
167	0xbd8f93a4	-0.07010582
168	0x3cddb31c	0.027062945
169	0x3d1589c7	0.036508348
170	0xbdf94a83	-0.12172415
171	0xbe3162a5	-0.17322786
172	0xbdfa0260	-0.12207484
173	0xbdb8d958	-0.0902583
174	0x3e679972	0.22617128
175	0x3d6e3d78	0.05816409
176	0xbdc4315a	-0.095797256
177	0x3d8f0e77	0.06985181
178	0x3de70caa	0.11281712
179	0xbd9d3b93	-0.076773785
180	0x3cbd3ee5	0.02310128
181	0x3e6750d2	0.22589424
182	0x3de843c9	0.11341054
183	0x3e2b0f4b	0.16705053
184	0xbea1cd44	-0.31601918
185	0x3c13435e	0.00898823
186	0xbe0414be	-0.12898538
187	0x3dfeeeed	0.12447915
188	0x3e556c2c	0.20842046
189	0x3da5799a	0.08079834
190	0x3e1815fa	0.14852133
191	0xbd0d2cf0	-0.034466684
192	0xbd92597d	-0.07145975
193	0xbe78bdff	-0.24291228
194	0xbe819732	-0.25310665
195	0x3d9102a1	0.070805795
196	0xbbb7ffb9	-0.0056152013
197	0xbea10e30	-0.31456137
198	0xbec12531	-0.37723687
199	0x3e97f4ea	0.29679042
200	0x3ec37d47	0.38181517
201	0xbec3cfb8	-0.38244414
202	0x3d02b75f	0.031913158
203	0x3e18c4b2	0.14918783
204	0xbcd1e821	-0.025623383
205	0xba83a83f	-0.0010044648
206	0xbd842242	-0.06451847
207	0xbe6c2b4a	-0.23063388
208	0x3e796561	0.24355079
209	0x3e4d4616	0.20046267
210	0x3d9f9f7e	0.077940926
211	0xbe194e7b	-0.14971344
212	0xbe52dbc0	-0.2059164
213	0x3c2797eb	0.010229091
214	0xbdfbac6b	-0.122887455
215	0x3e619beb	0.22032134
216	0x3e195818	0.14975011
217	0xbe0fe6a1	-0.14052822
218	0xbdf8317c	-0.121188134
219	0x3d0911ac	0.03346412
220	0x3b546a76	0.0032412088
221	0x3dca4eb9	0.098782964
222	0x3e221ef5	0.15832122
223	0xbccef2c6	-0.025262248
224	0x3db34800	0.08753967
225	0xbd0690b8	-0.03285286
226	0xbd88faf3	-0.0668849
227	0xbd430e30	-0.047620952
228	0x3e19a225	0.1500326
229	0xbcd311b8	-0.025765285
230	0x3da0f940	0.07860041
231	0x3de71ba6	0.112845704
232	0xbdf5f9e3	-0.12010553
233	0xbdd68a10	-0.10475552
234	0x3d12c43b	0.03583167
235	0xbca18a5c	-0.019719295
236	0x3d068774	0.032844022
237	0xbd167c35	-0.036739547
238	0xbd7a6a2d	-0.061136413
239	0xbdadfbc2	-0.084952846
240	0xbe710fba	-0.23541155
241	0xbe43a0e1	-0.19104339
242	0xbda8915e	-0.082308516
243	0xbe253583	-0.16133694
244	0xbe0dbf3e	-0.13842484
245	0x3d455b1a	0.048182584
246	0xbd586db8	-0.05283901
247	0xbe92bc13	-0.28659114
248	0xbded0891	-0.115738995
249	0xbd401598	-0.046895593
250	0xbcd592fc	-0.026071064
251	0x3d0ade9d	0.033903707
252	0x3e38ea75	0.18058188
253	0x3e489f13	0.19591932
254	0xbe2421ea	-0.16028562
255	0x3d4dc3f8	0.05023572

transformer_encoder.layers.1.self_attn.out_proj.bias f4 [16]
0	0xbd03a522	-0.032139905
1	0xbd632b9c	-0.05546151
2	0x3c93f3a1	0.018060507
3	0x3c7ce946	0.015436476
4	0x3c9e27c6	0.019306075
5	0xbd0e96e1	-0.034811858
6	0xbc92ef33	-0.017936325
7	0x3e04d677	0.12972437
8	0x3d18059e	0.037114732
9	0xbd5076aa	-0.050894417
10	0xbd47332e	-0.048632793
11	0xbd47037c	-0.048587307
12	0x3df03596	0.11728971
13	0xbd28328e	-0.041063838
14	0x3b666b83	0.0035159297
15	0x3cd15f3a	0.025558103
